checkpoint_critic.pth (torch, 166743 bytes, 5 tensors)

fcs1.weight f4 [256, 29]
000000 3b 59 81 3e 3c bb 22 be 5b 2a 71 be d9 b2 a6 3e
       0.2526339 -0.15891737 -0.23551314 0.32558325
000010 e5 c5 0e bd ff 7d 87 bc bd 7d 36 3e d9 f6 9d bc
       -0.034856696 -0.016539572 0.17821403 -0.019282745
000020 48 4b 07 3d 7e 79 70 3d 15 f2 d7 bc 59 a5 45 be
       0.03303078 0.058709614 -0.02636055 -0.19301356
000030 a0 52 a3 bc 3f 6a e3 3d 4d 8b 40 be e4 b3 91 3d
       -0.01993686 0.11104249 -0.18803139 0.071143895
000040 4b 7e 2e 3e a3 c9 30 3c 47 3d cb 3d 29 48 a2 3c
       0.17040364 0.010790261 0.09923797 0.0198098
000050 8c ec 10 3c 8e ca 89 3d 18 d5 8b 3a a6 06 2f be
       0.00884546 0.06728087 0.0010668365 -0.1709238
000060 5b 28 17 bd 3f f6 0a 3d d1 c5 d8 3d 4d dc ee be
       -0.03690372 0.033926245 0.105846055 -0.4665245
000070 de 2e df 3f df 3d 90 bd af 8b 0f be 79 32 87 be
       1.7436178 -0.07043051 -0.14018129 -0.26405695
000080 fd b3 54 3e 28 1b 0a be 4d 7c 08 3e c5 2a 27 be
       0.20771785 -0.13486922 0.13328667 -0.16324909
000090 0c 28 56 3d 99 ee 2c be 15 6b 6c 3e 1c c3 a9 3d
       0.052284285 -0.16887893 0.23087724 0.08289167
0000a0 50 08 d8 bd 89 49 c9 bd c1 f3 99 3e 70 3f e3 bd
       -0.105484605 -0.09828479 0.30068782 -0.11096084
0000b0 8e a9 49 be 48 74 70 3d e3 d0 5f 3c 61 17 aa bd
       -0.19693586 0.058704644 0.013660642 -0.083052404
0000c0 6b bb 05 bd 51 46 1f 3d b6 84 74 bc aa 23 55 bd
       -0.03264944 0.03888542 -0.014924219 -0.052035965
0000d0 aa d4 cc 3d d8 1c a6 3c 21 81 74 be 7d 4d 84 bd
       0.100015 0.020277426 -0.23877384 -0.06460092
0000e0 ca 46 a6 be 5b de dd bf 0c da 19 3e 64 d9 0b 3e
       -0.32475883 -1.7333483 0.15024585 0.13657147
0000f0 32 5a 3a be e4 c5 b7 3d cc a5 cc bd fc 21 e6 be
       -0.1819847 0.089732915 -0.09992561 -0.44947803
000100 4d 87 b0 be 82 b4 b4 3d 4c 0c c6 3d 06 9e 2d be
       -0.34478226 0.08823492 0.09670314 -0.16954812
000110 9c b8 fc 3d ef 4c d2 3d 16 ca ff bc 16 0a 69 be
       0.12339899 0.1026858 -0.031224292 -0.22757754
000120 44 96 98 3b fb aa 2d be c3 ae 07 3e 37 28 aa 3d
       0.004656585 -0.16959755 0.1325026 0.083084516
000130 4f fa ce 3d ab db 2e be 21 9d 25 3d 33 61 15 be
       0.10106336 -0.17075984 0.040433053 -0.1458786
000140 48 93 9d 3d b0 25 07 3e 47 40 6c 3e dc c0 0e be
       0.07694107 0.1319797 0.23071395 -0.13940758
000150 af fa c4 3e 0d 68 e0 3c 82 5b 83 3f fb e9 76 3e
       0.38472506 0.027393365 1.0262301 0.24112694
000160 ba e1 88 be a9 8e a9 be 81 cc 38 3e 85 73 cc 3d
       -0.26734716 -0.33116654 0.18046762 0.09982971
000170 2a f5 8f bd 90 04 94 bb 2f 32 25 bd 6a 00 80 3d
       -0.07029183 -0.0045171455 -0.040331062 0.06250079
000180 44 c3 8c 3d 62 03 fd bc 50 f5 2e bd e1 ce 1c be
       0.068731815 -0.030885402 -0.042714417 -0.15313293
000190 e4 bf 00 be 24 e1 7f 3b 9e 19 0a 3e 03 94 3d 3d
       -0.125732 0.0039044106 0.13486335 0.046283733
0001a0 4e 60 62 3d c3 d2 60 bc b2 91 83 3d a5 17 4b 3e
       0.055267625 -0.0137221245 0.064242736 0.19833238
0001b0 2f 2d 7b 3c 49 22 00 bd 85 e2 c9 bd ab 4e e3 bd
       0.015330597 -0.031282697 -0.09857658 -0.11098989
0001c0 78 a9 00 bd 6c 2e 2b be e6 97 25 3d a2 26 8b bf
       -0.031411618 -0.16716927 0.040428065 -1.0871165
0001d0 96 8f 9f bd be fd c8 be 4b ff 83 be 9a 14 d7 3d
       -0.07791059 -0.3925609 -0.2578071 0.10501976
0001e0 ab 91 ba 3d 1f eb b2 bd 53 b8 6a be 6b fc 1b 3d
       0.09109815 -0.08736252 -0.22921877 0.03808252
0001f0 5c 01 c9 3c c3 18 19 3d 20 93 e8 bc 75 5f 6e be
       0.024536781 0.03737713 -0.028390467 -0.23278601
000200 a5 4f c5 bd 22 1d 0e be 1a 7c 40 be ee 26 27 bd
       -0.096343316 -0.13878301 -0.18797341 -0.04080861
000210 f5 72 07 bd 1e a7 2e 3d 31 02 c8 3c d0 4e ea 3c
       -0.033068616 0.042639844 0.024415107 0.028602034
000220 57 1b 8d bc 3c a2 2c bc 59 48 27 be 17 ae c6 bd
       -0.01722495 -0.010536727 -0.16336192 -0.09701174
000230 71 1e 0f be 0d 20 a7 bd 3f 13 17 3e 25 58 dd 3d
       -0.13976456 -0.0816041 0.14753436 0.10807828
000240 7d 7f d1 be 4f 39 5f be 72 36 b7 be ac 22 7d bc
       -0.40917578 -0.21799205 -0.35783726 -0.015450161
000250 91 09 55 3d f1 d6 11 be 5e 2d 41 bd 87 44 30 bd
       0.052011076 -0.1424215 -0.047162406 -0.043034103
000260 59 9e 2d 3e a1 8e 50 3e 15 68 47 be 8a 72 0e be
       0.16954936 0.20366909 -0.19473298 -0.1391088
000270 07 26 78 3d 25 2d a3 be cc 5c 3b 3e 7d 84 24 bd
       0.06058314 -0.3187038 0.18297118 -0.040165413
000280 86 6d 94 bd bf 20 09 3e f4 c7 83 bd 87 e2 0b be
       -0.072474524 0.13391398 -0.064346224 -0.13660632
000290 9b 1c 7d bd c1 24 1e bc cd 43 b7 3e 6f ee fa bd
       -0.06179486 -0.0096523175 0.35793915 -0.12252509
0002a0 30 2f 51 be 7b fa 50 bd 02 db 07 3d 54 0d f2 3d
       -0.20428157 -0.051020127 0.033167847 0.118189484
0002b0 29 e9 f1 3d 6d b7 9d 3e 25 64 42 be 60 dc 04 3d
       0.1181205 0.30804005 -0.18983515 0.03243673
0002c0 76 4a b6 3c 17 17 37 bc 1a 23 29 be e8 d4 8e 3d
       0.022252303 -0.011174939 -0.16517296 0.069742024
0002d0 ee 93 f4 3c 53 d5 1d 3d 52 63 0f be 59 e7 cd 3c
       0.029855695 0.03853352 -0.14002731 0.02513473
0002e0 8c 47 89 3c 1a 8e 7a 3d 7d 84 50 be 08 ca be 3d
       0.016757749 0.061170675 -0.2036304 0.09315878
0002f0 b1 d9 34 bc f0 1e b5 ba de 64 a6 3d 37 10 92 bc
       -0.01103823 -0.0013818424 0.08124708 -0.017829997
000300 78 ce da 3d 14 5d 64 bd 49 f9 27 bc af 06 c2 3c
       0.10683912 -0.05575283 -0.010252305 0.023684828
000310 3e ca 08 bd a1 4a 4c 3c 2d e2 1b 3d ef e6 05 bd
       -0.033396 0.012468965 0.038057495 -0.03269094
000320 91 5a 14 3f f3 54 c8 3e 28 91 8e 3e 6a 3e 3f 3e
       0.57950693 0.3912731 0.2784512 0.18676153
000330 b9 9a d0 3d 8a db 73 3d 6d fe 12 3e eb 89 64 3e
       0.10185761 0.05953554 0.14354868 0.22318237
000340 96 1f a7 be 2d a0 3e be 25 d7 2f 3d f2 1a ed be
       -0.32641286 -0.1861579 0.042929787 -0.4630962
000350 5c 79 30 be ef 81 8d bd de 0b 10 3e 12 76 c2 3d
       -0.17233795 -0.069095485 0.14067027 0.094951764
000360 1b 5f 40 3e 60 37 27 3d 6b c4 fa bd d6 52 6c 3d
       0.1878628 0.040824294 -0.12244495 0.057696186
000370 f3 7e 16 bd dd 6a 11 3e de b0 33 bd 16 e6 12 3e
       -0.036742162 0.14200921 -0.043869846 0.14345583
000380 78 c2 9f 3d f2 90 37 bb 13 f3 f5 3d 90 28 b0 3c
       0.07800764 -0.0028009978 0.12009253 0.021503717
000390 e0 51 df bd 60 76 87 bd e0 32 a5 3e 37 5e c8 3f
       -0.10904288 -0.06614375 0.32265377 1.5653752
0003a0 92 44 e7 3e af 2c 02 be b5 b7 8b be 23 b4 f7 3d
       0.45169502 -0.12712358 -0.27288595 0.12094905
0003b0 e2 e6 91 3d cf d1 29 3e 25 c1 10 3d bc 6c 24 be
       0.071241155 0.16583942 0.035340447 -0.16057104
0003c0 e8 c7 e5 3e e1 93 1a be ce c9 14 3d d6 7f 94 bd
       0.4487908 -0.15095474 0.03632527 -0.07250945
0003d0 22 16 ab bc 8d e9 07 3e 4c d0 13 be 22 e5 1b 3d
       -0.020884577 0.13272686 -0.14434928 0.038060315
0003e0 8e 72 bf 3d 8b b6 bf 3c 21 47 da 3d ea 5b 5e be
       0.093480214 0.023402473 0.10658098 -0.2171475
0003f0 6a 59 49 bd df a5 c6 3d 65 e6 3c bc ba c6 82 3d
       -0.049157538 0.09699606 -0.01152954 0.0638556

fcs1.bias f4 [256]
000000 fb 60 e4 3e 1c b6 46 3f 79 28 54 bc 75 1c 61 3f
       0.4460524 0.77621627 -0.012949103 0.87934047
000010 64 ca 6a 3f 56 56 51 3f 54 e9 48 3e 39 91 2a be
       0.91715074 0.81772363 0.19620258 -0.1665696
000020 24 dc 95 3e 3f 91 64 be af 5d 72 be c5 d3 04 3f
       0.29269516 -0.22321032 -0.2366855 0.51885635
000030 13 20 9f be 17 65 1a bc f0 90 d7 3e 67 df 9c 3e
       -0.31079158 -0.009423516 0.42102766 0.30639192
000040 0c 56 8a bf f7 6a 24 3f f0 18 a9 bd 1e 31 67 3e
       -1.080751 0.64225715 -0.082567096 0.2257733
000050 89 0e da 3e a4 77 46 be 2c 05 8b 3e 4f b1 44 3e
       0.42589214 -0.19381577 0.27152383 0.19208263
000060 7d 80 0d 3e d2 bd 2d 3f 9d 72 d9 3e 38 56 9f be
       0.13818546 0.6786777 0.42470255 -0.31120467
000070 34 43 be bc aa e5 6b 3f 51 9d a1 be 3a 2d b3 3e
       -0.023225404 0.92147315 -0.31565335 0.34995443
000080 ab 77 9d be c8 56 43 bd ae a4 34 3f 5c 4c 1b be
       -0.30755362 -0.047690183 0.7056378 -0.15165848
000090 63 08 aa 3e 4d ce d7 bd 46 14 94 3e d6 c9 3e 3d
       0.33209524 -0.105373956 0.28921717 0.046579204
0000a0 c1 5d 3d bf 6e 85 96 be 32 1f 65 3f df 04 2a 3f
       -0.7397118 -0.29398674 0.89500725 0.6641368
0000b0 0c c3 20 3f 59 f0 86 3c 45 5d cc 3d c0 f3 b7 3e
       0.6279762 0.016472029 0.09978727 0.35928154
0000c0 e1 80 26 bf f7 15 cc 3e 89 3f 42 be 10 b2 67 3f
       -0.65040404 0.39860508 -0.18969549 0.90506077
0000d0 0a f3 5f 3f e5 84 47 3f a5 2a 1c 3f da 62 5b 3f
       0.87480223 0.77937156 0.6100257 0.8569771
0000e0 f9 e8 a3 bf e1 16 f0 3e 3d 4f b3 bd 37 dd 52 3f
       -1.2805473 0.46892455 -0.08755348 0.823688
0000f0 03 f4 9b 3e ee 61 ae be f0 e7 e8 3e f0 f1 ea 3e
       0.30459604 -0.3405909 0.45489454 0.4588771
000100 04 32 ed be ca 73 18 3f 64 96 a1 bd 58 c5 1e bf
       -0.4632722 0.5955168 -0.07890013 -0.6201987
000110 f5 7f 1d 3f 40 93 74 bf 03 19 20 3f ef 17 e7 be
       0.6152337 -0.95537186 0.62538165 -0.45135447
000120 c4 d8 88 3e 31 0c 69 3e 18 ea 2e 3f 07 7f 0c be
       0.2672788 0.22758557 0.6832595 -0.13720332
000130 18 0d 39 3f f2 5e 8c bf c9 fa de 3e 9c e5 ed bf
       0.72285604 -1.0966475 0.4355071 -1.8585696
000140 71 e5 11 3f 34 be 8e bf e8 85 af bc 57 45 5e 3e
       0.56990725 -1.1151795 -0.021426156 0.21706139
000150 42 10 f5 3e 6c 2f a3 be 27 25 2a 3f 70 6c f9 3e
       0.47863966 -0.31872118 0.6646294 0.48715544
000160 38 da 7e 3d a4 1f 39 bd 6f 9b 98 bf cc ef 22 3e
       0.06221983 -0.04519619 -1.1922435 0.15911788
000170 53 c1 77 3f d1 c7 1b 3e c5 f3 be 3c 85 03 b8 be
       0.96779364 0.15212943 0.023309598 -0.35940185
000180 a9 97 84 3d 3a 0c c7 bd 7b 48 01 be 50 1e 12 3f
       0.064742394 -0.09719129 -0.12625305 0.57077503
000190 3e 2c 1e 3f 91 76 d8 3d 01 4a 23 3f 30 3e 4b bf
       0.6178626 0.1056949 0.63784796 -0.79391766
0001a0 9e cb 09 3f 12 43 c2 3e f8 63 0d 3f 5e 62 12 3f
       0.5382632 0.37941796 0.55230665 0.57181346
0001b0 f8 53 cb 3e b5 aa 88 bd 21 c8 d8 bd d7 ff 1f 3f
       0.397125 -0.06673185 -0.105850466 0.62499756
0001c0 b3 81 45 be a4 b3 34 bf 80 20 2f 3e 4e 46 68 3f
       -0.19287758 -0.7058661 0.17102242 0.90732276
0001d0 69 67 15 3f c9 a0 7a 3e 28 13 2a 3f af cb ab bd
       0.58360916 0.24475397 0.6643548 -0.08388459
0001e0 76 85 0f 3e 82 bd 70 3e 44 88 e3 3e e9 28 5b be
       0.14015755 0.23509791 0.444399 -0.21402325
0001f0 48 b9 e1 3e d3 ee d9 bd 47 b5 31 3f d7 c8 45 3f
       0.4408667 -0.10641255 0.6941723 0.7725958
000200 89 8d 8a bf 1f 8a 21 bf cb c0 06 3e 57 87 dd be
       -1.0824443 -0.6310138 0.13159482 -0.4326732
000210 68 53 78 bf fb c3 d7 3e ae 3b 12 3e 0d 31 11 3f
       -0.9700227 0.4214171 0.14280578 0.5671547
000220 19 e4 00 3f 6e 58 71 3e d6 b2 26 3f ef c8 ca 3e
       0.5034805 0.2356889 0.6511663 0.39606425
000230 5e dd 99 bf 8a 5e 20 3f 66 ca 12 3f 67 0b 20 3c
       -1.2020681 0.62644255 0.57340086 0.0097683435
000240 af c0 3e be 74 38 81 be 97 19 03 bf a7 86 4d 3f
       -0.1862819 -0.25238383 -0.5121092 0.8028359
000250 2f cd bd 3e 8b a3 40 3f a3 f8 60 3f e8 db 46 3f
       0.37070605 0.75249547 0.8787939 0.776793
000260 91 3a ef 3e 57 af 60 3e 63 5e 1b be 54 b7 b8 bf
       0.4672437 0.21941887 -0.15172724 -1.4430947
000270 b6 a8 8d bf 72 d6 51 3f 9a 8e 37 3f 6d 05 af 3e
       -1.1067111 0.8196784 0.7170197 0.34183827
000280 92 d6 27 3f 19 03 de bd 39 85 34 3f 7c 5e cc be
       0.65561783 -0.108404346 0.7051578 -0.39915836
000290 37 90 f4 3e 3c ce c6 3c d9 1d 84 bd 84 12 9b bd
       0.47766277 0.024268262 -0.064510055 -0.07571891
0002a0 fa 98 41 3f b9 20 94 3d 0e f2 e6 3e 99 aa 0f 3f
       0.7562405 0.07232804 0.45106548 0.56119686
0002b0 1d 44 6b 3e 9e bf 72 3f 6d 02 0e 3f 10 12 b6 3e
       0.22975202 0.94823635 0.5547245 0.35560656
0002c0 1a 15 1a bf 7d 20 bc 3e 72 16 7e 3f 64 ae 31 be
       -0.6018845 0.36743537 0.99253 -0.17351681
0002d0 2c cb d8 be 22 96 bc 3e d8 0b 11 3f 62 77 27 bd
       -0.42342508 0.36833292 0.566587 -0.040885337
0002e0 bb 4a 3d bf 6e 00 58 be 65 bb bd 3e ea c9 40 3e
       -0.73942155 -0.21093914 0.37057033 0.18827024
0002f0 c6 f1 a7 be 8f 28 8b 3e dc a7 f2 3e f6 3b d6 3d
       -0.32801646 0.2717938 0.47393692 0.104606554
000300 b8 7d f1 be 0a 6f 82 3f 9c a8 e0 bc 32 24 3d 3e
       -0.47166228 1.0190136 -0.02742415 0.18470839
000310 6a b5 9e bf 2c d8 2a 3f 48 16 3f 3f be 9c 7e bf
       -1.2399113 0.667361 0.74643373 -0.9945792
000320 dc 36 09 3f 46 92 ad 3e a2 bd 44 3f 0b 37 ac 3e
       0.53599334 0.3390066 0.76851857 0.33635744
000330 bc a9 32 3f fd 80 ea 3e ee 7f ee bc 1c a8 81 3e
       0.69790244 0.45801535 -0.029113736 0.2532357
000340 94 48 1a 3f 18 8b 9a be db f7 c5 3e 62 46 dc 3e
       0.60266995 -0.30184245 0.3866566 0.43022448
000350 53 cf 99 bf ee 0f 0f 3f 2b 5e 4d 3f 58 85 0b 3f
       -1.2016395 0.5588368 0.80221814 0.5450034
000360 59 91 5e bf ac 77 09 bf 22 76 32 bf 90 ea a5 3e
       -0.8694053 -0.5369823 -0.69711506 0.3240552
000370 83 a2 c9 be ff 4b aa bf 3e c6 8a 3f 95 10 fa 3e
       -0.393818 -1.3304442 1.0841749 0.48840776
000380 46 43 69 3f 9b ca 13 3f 22 5f e0 bf b7 f6 bc be
       0.91118276 0.57731026 -1.7529032 -0.36906978
000390 ac a2 61 3f 92 ee 50 3e 0f 70 2f 3f 19 7d 37 3e
       0.8813884 0.20403507 0.6853036 0.17918815
0003a0 6b 93 48 3f 2e 24 99 3e 54 9d 28 3f 86 4d 6d 3f
       0.7834994 0.29910415 0.65865064 0.92696416
0003b0 02 99 32 bf cb d2 90 be 42 03 3c 3f 83 60 0a 3f
       -0.6976472 -0.28285822 0.7344247 0.54053515
0003c0 e5 92 50 3f f0 dc 71 3f 18 53 50 3f 75 f2 f9 3e
       0.81474143 0.9447775 0.8137679 0.48817793
0003d0 47 ed 60 3f fd b9 4e 3f 57 4b 22 3f 38 13 df 3e
       0.87862056 0.80752546 0.6339621 0.4356935
0003e0 95 95 8b 3e c0 37 d0 bd 5d ea e9 3d 5f ae 2d 3f
       0.2726256 -0.101668835 0.114216544 0.67844194
0003f0 49 6e a1 3e f6 46 97 3e b2 18 50 3f 1c 1a 77 3e
       0.31529453 0.29546326 0.8128768 0.24131054

fc2.weight f4 [128, 260]
000000 28 12 ae 3e d4 b3 e8 3e 74 c8 0a 3f 3c 61 96 3e
       0.33998227 0.45449698 0.5421212 0.2937106
000010 77 c0 04 3e b8 66 79 3e d2 39 4f 3e 7e 17 06 3f
       0.12964045 0.2435559 0.202369 0.52379596
000020 a2 e3 fc 3d c5 3f af 3e 0b be 46 3e f3 e1 ce 3e
       0.12348105 0.3422834 0.19408433 0.4040676
000030 93 d3 e4 3e a8 45 18 3f 6c c8 0a 3f 2d c9 10 3f
       0.44692668 0.59481287 0.5421207 0.5655697
000040 41 a4 2b 3f 7a 34 7f 3e cb f3 96 3e 04 3a e1 3e
       0.67047507 0.24922362 0.29482874 0.43989575
000050 2c 4c cb 3e ed 54 09 3f ab c3 f7 3d 2f 39 99 3e
       0.39706552 0.5364521 0.120978676 0.2992644
000060 8e 2d a6 3e ed ba 01 3e fd 21 a6 3e 9c 04 f2 3e
       0.3245663 0.12668963 0.32447806 0.47269142
000070 07 f4 36 3f a5 fe 54 3f 4e 5a 4d bf 34 18 8a 3e
       0.71466106 0.83201057 -0.8021592 0.2697159
000080 c2 3b 10 3f d5 29 dc 3e 9e 5a 12 3e 6a 46 06 3f
       0.56341183 0.43000665 0.1429238 0.52451193
000090 d2 d8 39 3e be c6 65 3e b9 c2 aa 3e 61 8f 67 3e
       0.18149117 0.22439095 0.33351687 0.22613288
0000a0 be 85 7b bf 11 6e 85 3f 1c 23 7c 3e a5 57 86 3f
       -0.9825095 1.0424215 0.24622768 1.0495497
0000b0 80 5b 07 3f 71 d1 29 bf 21 21 82 3e d0 32 b8 3e
       0.5287399 -0.6633521 0.254159 0.35976267
0000c0 72 c3 a0 3e 91 6f d0 3d 36 30 07 3f dc 4f b8 3e
       0.31399113 0.101775296 0.5280794 0.35998428
0000d0 ea 77 55 3e 23 ca 4d 3e 54 1c 7f 3e de a6 29 3e
       0.20846525 0.2009664 0.2491315 0.16567561
0000e0 3a cc 8b 3f c2 a9 96 3e 82 98 23 3f 38 aa fd 3e
       1.09217 0.2942639 0.63904583 0.4954393
0000f0 cf 12 92 3e a3 1a af 3e 64 82 9b 3e 16 36 d2 3e
       0.28529975 0.3420001 0.30372918 0.4105689
000100 f4 4b de 3e c4 48 1d 3e ce ef 89 3e 1d 4b 1f 3f
       0.43417323 0.15359789 0.2694077 0.6222399
000110 6f 6a 4c 3e 70 1c 8a 3f ad c4 ca 3e f6 6b a8 3f
       0.19962476 1.0789928 0.39603177 1.3157947
000120 0c 9e b9 3e 3d 63 b2 3e 88 d4 8d 3e 6f 29 8f 3e
       0.36253393 0.34841338 0.2770121 0.279613
000130 02 51 60 3f 8d d5 09 3f d4 32 ab 3e ae de b8 3f
       0.8762361 0.5384148 0.33437216 1.4442956
000140 0d d5 95 3e d8 c5 20 3f db ad 35 3e cd 7d ec 3e
       0.29264107 0.62801886 0.17742102 0.46189728
000150 50 ad 89 3e e2 ea 41 3f 6d e2 ef 3e 2c 6a 53 3e
       0.2689004 0.7574903 0.46852437 0.2064597
000160 49 5d fa 3d a0 9a 4a bf 32 a3 51 3f 1f ec 73 3e
       0.12224824 -0.7914219 0.8188964 0.23820542
000170 ab 75 e6 3e 73 b9 9f 3e 61 1d a6 3e ac 30 78 3f
       0.4501165 0.31196174 0.3244429 0.9694927
000180 de 50 79 3e d6 bb 6c bf 5b cd ca 3e f2 de 33 3e
       0.24347255 -0.92474115 0.396098 0.17565516
000190 1d 4e 3c 3e 50 c6 86 3e c0 db 96 3e 34 32 ae 3e
       0.18389173 0.26323175 0.2946453 0.34022677
0001a0 64 de a9 3e 0c 28 5f bf 9e 99 ad 3e 67 f3 bc 3e
       0.33177483 -0.8717048 0.33906263 0.3690445
0001b0 37 3e a0 3e 15 d4 97 3e c1 cd 8a 3e 17 20 cd 3e
       0.31297466 0.29653993 0.27110103 0.40063545
0001c0 6d 1f bf 3e 0b d1 18 3f ca e8 c8 3e a3 6d 31 3e
       0.37328663 0.59693974 0.39240104 0.1732698
0001d0 d8 fb 46 3f 91 5b 04 3f 92 9f 48 3e 37 a8 87 bf
       0.77728033 0.5170222 0.19592121 -1.059821
0001e0 26 1d 36 bf 17 6d 84 3e 16 b8 cb 3e 07 84 80 3e
       -0.71138227 0.2586448 0.39788884 0.2510073
0001f0 e1 7c 02 3f 21 c9 4d 3f 0a 56 4e 3e 85 8f 17 3f
       0.509718 0.80385023 0.20150009 0.5920337
000200 8c b6 22 3f b1 37 06 3f 5a 74 59 3f 0d bb 5e 3e
       0.63559794 0.5242873 0.84943163 0.21751042
000210 6b 05 f8 3e 05 28 d9 3e 00 37 03 3f a8 40 7c 3e
       0.48441634 0.42413345 0.512558 0.2463404
000220 30 c5 69 3f 0e 7b 73 3e cb 5f b7 3e 05 ea 98 3e
       0.9131651 0.2377741 0.35815272 0.29866043
000230 3a 9e b0 bf 05 7a 15 3e ad 9a a2 3e 22 cf 53 bf
       -1.3798287 0.14597328 0.31758633 -0.82737935
000240 cb 0b 94 3f 34 3f 9c 3e 20 ba 43 3e 51 72 ed 3e
       1.1566099 0.3051697 0.1911397 0.4637628
000250 f4 cf 13 3f 83 77 da 3e 01 8f 51 3f 76 6b 39 3e
       0.57739186 0.42669305 0.8185883 0.181074
000260 da 56 3a 3e 7f 12 e9 3e 61 74 73 3e 7a 02 7d 3f
       0.18197194 0.45521924 0.23774864 0.98831904
000270 ba 98 52 3f 80 91 3c 3f b5 63 06 3f f4 a1 87 3e
       0.8226429 0.73659515 0.5249589 0.26490748
000280 d0 cc fe 3e 6c 98 bf 3e 36 55 3e 3f 51 3d 93 3f
       0.49765635 0.37420976 0.7434877 1.1503087
000290 ed ab a4 3e 3e c8 11 3f 80 db b7 3e da fc d1 3e
       0.3216242 0.5694617 0.35909653 0.41013223
0002a0 a2 82 9b 3d be ea 93 3e 80 51 7f 3f 57 2c ba 3e
       0.075932756 0.28890032 0.99733734 0.36361954
0002b0 e0 f0 46 bf e2 a6 8e 3e b6 2f 76 3e c3 9a 20 3f
       -0.77711296 0.27861696 0.24041638 0.6273615
0002c0 db b2 ea 3d 40 cb b6 3e 21 12 58 3f 8e e7 8e 3e
       0.11459895 0.35701942 0.8440266 0.27911037
0002d0 24 0f 06 3f c0 e8 b0 3e 43 99 af 3e 01 18 9e 3e
       0.5236685 0.34552574 0.34296617 0.3087769
0002e0 a0 c8 65 3f e4 ad 97 3e 2b 4d ad 3e b6 35 87 3e
       0.89759254 0.29624856 0.33847937 0.26408166
0002f0 b5 27 05 3f df 91 b0 3e 41 45 e5 3e 58 fd 35 3f
       0.52013713 0.3448629 0.447794 0.71089697
000300 af fc 41 3f 60 72 35 3f 19 97 c4 3e 33 88 83 3e
       0.7577619 0.7087765 0.38396528 0.2568985
000310 5e ef 55 3f 04 ea 25 3f 53 bc 82 3e 16 8b 10 3f
       0.8356837 0.64810205 0.25534305 0.5646223
000320 89 7c 92 3d 73 e9 63 3e ad bc 13 3f 14 50 a5 3e
       0.071526594 0.22257023 0.5770977 0.32287657
000330 cf 81 36 3f 2e 62 0b 3f 68 7d 41 3e 88 cd d7 3e
       0.7129182 0.54446685 0.18895495 0.42148995
000340 85 80 5b 3e 7e ff 46 bf e4 7e c3 3e 98 36 5b bf
       0.21435745 -0.777336 0.38182747 -0.8563018
000350 58 23 29 3f 3f 6d 35 3f 54 d9 38 3f e7 81 2a 3e
       0.66069555 0.7086982 0.72206616 0.16651116
000360 01 1f 1a 3f 50 13 bf 3f 15 28 ec 3f 86 e3 c4 3e
       0.6020356 1.4927769 1.8449732 0.38454837
000370 75 66 d6 3e 40 87 81 3f 92 0f 7e 3f 5b e0 60 bf
       0.41875044 1.01194 0.9924251 -0.8784234
000380 99 3a b6 3e 1c 0d ce 3e e7 90 93 3f e4 dd 1b 3f
       0.3559158 0.40244377 1.1528596 0.60885453
000390 fe b5 1d 3f 07 a1 35 bf cf 37 cb 3e 79 fa 8d 3d
       0.61605823 -0.70948833 0.39691016 0.069325395
0003a0 61 d9 90 3e 34 08 10 3f 4f 4a 40 3f a3 a7 58 3e
       0.28290847 0.56262517 0.75113386 0.21157698
0003b0 3a 44 05 3f 86 30 55 3e 87 5d 29 3f 45 06 80 3e
       0.5205723 0.20819291 0.66158336 0.25004783
0003c0 f6 3f 95 3e 71 62 3d 3f 29 c4 83 3e b2 a2 08 3f
       0.2915036 0.73978335 0.25735596 0.53373253
0003d0 6d f3 38 3f eb f3 13 3f 6d f9 92 3e aa 37 0c 3f
       0.7224644 0.57794064 0.28705922 0.54772437
0003e0 3a af 75 3e 1c 12 13 3f c8 2f 95 3e 8e 02 8d 3e
       0.23992625 0.5744951 0.29138017 0.27541012
0003f0 dc 08 f8 3d 43 fe 05 3f 43 7c 60 3f a4 de 0a 3f
       0.12111065 0.523411 0.8768961 0.5424597

fc2.bias f4 [128]
000000 95 ef 1e 3e 07 f6 21 3e ae 7a 20 3e 16 0b e5 bd
       0.15521081 0.15816508 0.15671799 -0.11183755
000010 3f 4e 4e 3e 59 ec 1e 3e 28 3c 40 3e 3a bc c6 be
       0.20147036 0.15519847 0.18772948 -0.3881548
000020 0a b8 43 3e d0 87 9a bd e8 03 33 3e 16 10 4c 3e
       0.19113174 -0.075454354 0.17481959 0.19928011
000030 f2 c1 86 3e aa 7f 13 be db 13 cd bd 5d fc 0f 3e
       0.26319844 -0.14404169 -0.10013553 0.14061113
000040 a3 f4 2b be b7 9a 71 3e 8d 8f 41 3e 47 d8 36 be
       -0.1679254 0.23594175 0.18902417 -0.17855941
000050 14 4a ca 3e 0a 28 1f 3e 0e 5f ed bd 21 9b 07 be
       0.39509642 0.15542617 -0.11590396 -0.1324277
000060 0c 44 54 be a9 e9 c0 bc ee 23 4e 3e 03 44 30 3e
       -0.20729083 -0.023548918 0.20130894 0.17213444
000070 53 67 01 3e 2b c2 2e be 86 c3 50 3e eb ab 0e be
       0.12637071 -0.17066257 0.20387086 -0.13932769
000080 a5 34 f0 3d e8 35 61 3e cf 72 26 be dd e8 9b 3d
       0.11728791 0.2199322 -0.16254734 0.076127745
000090 d9 b5 2e 3e e5 4d 1d 3e b0 5e a9 3d 5c 3d 73 3e
       0.17061557 0.15361746 0.08270013 0.23753875
0000a0 a8 0e a0 bd 98 cd 01 3e 3d 19 c2 bd 7f b1 02 be
       -0.078152955 0.12676084 -0.0947747 -0.12763022
0000b0 8e 3d df 3e a2 55 21 be dd 6d 29 be 42 4f c5 bd
       0.4360165 -0.15755323 -0.16545816 -0.09634258
0000c0 69 ee 0a 3e 7e 1d 70 3e 6c e6 f0 bd 05 ce 58 3e
       0.13567509 0.2344875 -0.117626995 0.2117234
0000d0 4b 16 17 be 1c 48 d4 3d 3d 03 1f 3e 5a 13 89 3e
       -0.14754598 0.10365316 0.15528579 0.26772577
0000e0 f5 b7 1a bd 27 65 6d be 11 b8 77 bd 9c 6c 23 be
       -0.03777309 -0.23183118 -0.060478274 -0.159594
0000f0 ea ff 1b be 74 7e 8e bd 83 4d 20 be 9b cf a5 bd
       -0.15234342 -0.06957713 -0.15654568 -0.08096238
000100 17 8b 4a be 84 b2 fa bd f4 96 4e 3e 1e af 2b be
       -0.19779621 -0.122410804 0.20174772 -0.1676602
000110 d5 91 0d 3e e2 7b d5 3e e7 21 f8 3d 3d fa 2c 3e
       0.13825162 0.41696078 0.12115841 0.16892333
000120 34 e6 d8 bd 72 05 54 3e 64 53 46 3e fc b0 07 be
       -0.10590783 0.20705202 0.19367748 -0.13251108
000130 94 42 1f bd 26 22 d4 bd 52 90 50 be db 71 61 3c
       -0.038881853 -0.10358076 -0.20367554 0.013760055
000140 9f 58 db 3e 8b b9 20 be f6 92 39 3e 20 a5 f1 3d
       0.4284105 -0.15695779 0.18122467 0.11799073
000150 0d 13 7a 3e 4b e4 1d 3e 42 9e 4d bd f2 19 10 3e
       0.2442133 0.15419118 -0.050199755 0.14072397
000160 f5 4d ca 3e a7 95 08 be 5b 55 43 be 19 16 0f 3e
       0.39512601 -0.13338338 -0.1907553 0.13973273
000170 84 73 e9 3d 2a b1 38 be b1 f5 4d 3e 20 88 fb bd
       0.11398986 -0.18036333 0.20113255 -0.12281823
000180 64 67 71 3e a2 ee c0 bd 0b 6a e8 bd 43 6e 81 bd
       0.23574597 -0.094205156 -0.11348351 -0.06319859
000190 07 38 a9 3e c6 c4 eb 3e 9f c1 4b 3e f0 6a 02 3e
       0.33050558 0.46048564 0.1989808 0.12736106
0001a0 3b 4e eb 3c cd f6 45 be 01 07 0d 3e ec cc 47 be
       0.028723827 -0.19332428 0.13772203 -0.19511765
0001b0 b7 b1 eb 3d e6 9e 32 bd a9 5d 23 3e ef 85 74 3e
       0.11508506 -0.04360857 0.15953697 0.23879217
0001c0 e9 41 b5 3e 44 7f 0f 3e 61 c0 92 bd d7 d0 72 3e
       0.35401848 0.14013392 -0.071655996 0.23712479
0001d0 36 6d 8a be 66 da 98 3e 77 a6 c1 bd 8b 04 55 3e
       -0.27036446 0.29854125 -0.09455579 0.20802514
0001e0 82 53 23 3e bc 5b f0 bd ca 2d 4d bd b6 e9 81 bd
       0.15949824 -0.11736247 -0.050092496 -0.06343405
0001f0 4c 8c e2 bd eb 8c f4 bd 04 81 63 3e 6f 1e 30 3e
       -0.11061916 -0.119409405 0.22217184 0.1719911

fc3.weight f4 [1, 128]
000000 d2 26 03 c0 d0 75 c6 bf 9c 71 ad bf 88 90 b8 3f
       -2.0492444 -1.5504704 -1.3550296 1.4419107
000010 61 22 00 c0 d4 b4 dc bf ca 34 9f bf 66 ee a0 c0
       -2.0020983 -1.7242684 -1.2437985 -5.0291014
000020 7c fa ba bf 90 2a b0 3f 20 ac 86 bf cd 44 fe bf
       -1.4607692 1.3762989 -1.0521278 -1.9864746
000030 7a 6e 80 bf a1 b6 c6 3f f7 53 8e 3f d5 53 f1 bf
       -1.0033715 1.5524484 1.1119374 -1.8853709
000040 af 0f ee 3f c8 0f a7 bf 3d 67 fc bf 99 45 a0 3f
       1.8598536 -1.3051691 -1.9719006 1.252124
000050 cb ca 7c 40 fd d4 ac bf 9c 49 e4 3f 7c 3c 7c 3f
       3.9498775 -1.3502499 1.7834964 0.9852979
000060 fe 81 88 3f a9 db c2 3f dd 15 8c bf b6 8c ab bf
       1.066467 1.5223285 -1.0944172 -1.3402317
000070 b2 8a cf bf 9b 0c cf 3f e1 a2 c1 bf 42 cb d8 3f
       -1.6214201 1.6175722 -1.5127832 1.6937029
000080 ca 87 ea bf 80 91 b7 bf 44 0d b0 3f 94 1a e6 bf
       -1.832269 -1.4341278 1.3754048 -1.7976861
000090 3d c9 af bf 72 f1 ce bf 93 53 cc bf 48 52 81 40
       -1.3733288 -1.6167433 -1.5963005 4.041294
0000a0 79 f0 b3 3f 23 7d bf bf 17 25 e9 3f d8 22 d4 3f
       1.4057761 -1.4960064 1.8214444 1.6573133
0000b0 6d e9 9f 40 e4 78 01 40 e0 8f 95 3f b4 6b cd 3f
       4.9972444 2.0230036 1.1684532 1.6048493
0000c0 15 0b b4 bf e8 30 ce bf ff 4c 9d 3f 9c c6 84 bf
       -1.4065882 -1.6108675 1.2289122 -1.0373111
0000d0 57 c5 97 3f 13 9d cc bf ea 61 87 bf fd b3 73 40
       1.1857098 -1.5985435 -1.0576756 3.8078606
0000e0 fd 0c dd 3f 7c 43 c7 3f e3 f8 a0 3f 4c 60 ce 3f
       1.7269589 1.556747 1.2575954 1.6123137
0000f0 b5 2a ca 3f 29 d4 c2 3f b2 9d ab 3f 9b 6d b7 3f
       1.5794283 1.5220996 1.34075 1.4330324
000100 bf a8 c5 3f dc 90 f0 3f 0e f8 d0 bf 78 7b a1 3f
       1.5442122 1.8794208 -1.63257 1.2615805
000110 24 8f 03 c0 52 39 89 40 34 27 c1 bf 94 08 a1 bf
       -2.0556116 4.288247 -1.5090089 -1.2580743
000120 41 84 d0 3f 2c a9 f8 bf 47 ce 97 bf c5 f6 e3 3f
       1.6290361 -1.9426627 -1.1859826 1.7809683
000130 9a 52 d5 3f fa 49 85 3f cf d7 a3 3f 57 51 ea bf
       1.6665833 1.0413201 1.2800235 -1.8306073
000140 0f a0 94 40 7d 63 a1 3f 12 39 ea bf 14 68 d7 bf
       4.6445384 1.2608486 -1.8298666 -1.6828637
000150 67 0a 90 bf 98 c5 08 c0 51 23 cf 3f e2 94 ef bf
       -1.1253175 -2.1370602 1.6182653 -1.871731
000160 a4 32 a2 40 b3 d6 fd 3f 68 6d b1 3f 25 b6 95 bf
       5.0686817 1.9831146 1.3861513 -1.1696211
000170 bc 51 ec bf 94 f5 85 3f c9 d3 c0 bf 77 aa a7 3f
       -1.8462443 1.046557 -1.5064632 1.3098897
000180 b2 b9 91 bf 57 42 e9 3f 6c 61 b0 3f e2 de a2 3f
       -1.1384795 1.822337 1.3779731 1.2724268
000190 97 98 8d 40 26 af 86 40 27 62 f5 bf c3 cb d2 bf
       4.4248767 4.2088804 -1.9170579 -1.6468433
0001a0 44 5d 12 c0 48 72 99 3f fc ce f8 bf 1a 96 85 3f
       -2.2869425 1.1988001 -1.9438167 1.0436432
0001b0 f7 fe d5 bf a5 08 b9 3f 2e e2 b9 bf d7 17 84 bf
       -1.6718434 1.4455763 -1.452215 -1.0319775
0001c0 06 92 95 40 e1 58 f3 bf 6a 67 e3 3f 8b 59 85 bf
       4.674075 -1.9011499 1.7765934 -1.0417951
0001d0 d4 1e 4e c0 70 cf 75 40 95 85 a0 3f 1b a3 c8 bf
       -3.2206316 3.840786 1.2540766 -1.5674776
0001e0 94 6b 96 bf e3 6d dc 3f 31 8e da 3f 54 71 c7 3f
       -1.175158 1.7221035 1.7074643 1.558146
0001f0 bb c0 cb 3f 86 49 b9 3f 2a 4b 00 c0 a5 f3 ae bf
       1.5918192 1.4475563 -2.0045877 -1.3668104
