checkpoint_actor.pth (torch, 166231 bytes, 6 tensors)

fc1.weight f4 [256, 29]
00000000: 696a b6ba e0e4 e2bc 24dc 953d 4ce3 f9bb
00000010: c790 083d aa7f 903d 5c87 763d 7eb7 1f3b
00000020: d4ea 8ebc c0c5 ae3d ce43 753d 9308 55bc
00000030: f68d 0b3d 6b1d 3bbc 3ce2 17bd 3cd5 4c3d
00000040: 7053 063d f254 7dbc c9ae d13c 6e0b fcbc
00000050: 5f89 a43d f774 33bd d731 9bbc 65ee 27bc
00000060: 721f 08bd 8b0c 22bc f434 803d fc4d 01be
00000070: 7a47 2cbf 4de1 613d a8e4 cbba 0d17 b93d
00000080: 1de6 a63d 1d4c 60bd 50cb 05bd ed60 983d
00000090: d4c1 d8bb 3be0 81bd 3318 8cbd 0c3d 55bd
000000a0: 4fae c93c f7d5 69bd 5327 ef3d 9154 a4bb
000000b0: fc41 5a3d d5bf b8bc 22a1 edbc 304f 913d
000000c0: 6525 793d 30f9 babb d6ef 19bd 017c 6b3c
000000d0: 7bc2 cb3b 05b9 2cbc 3b1b ebbc 7c87 25bc
000000e0: ac19 3bbe f029 283f d384 d3bc 129d b83c
000000f0: 21ac 1fbe 4a6d 0b3d 98de 9fbc 1bc8 86bd
00000100: 3dd2 4b3d cfe4 efbc c8fd babd 3b5d b9bc
00000110: 5715 2ebd b3c7 e53c 5352 e0bc f2af 683d
00000120: 0737 bb3c bc89 3ebd 6879 e6bb bce3 003c
00000130: 6b4e 063d 1967 26bc f5e2 ddbc ecc7 51bb
00000140: d97f e1b9 f9cb acbb 0c61 e0bb 3911 56bc
00000150: 8c18 ec3d bee7 453e 5a58 813d d183 0f3d
00000160: 99f8 c63c 5f16 afbd 15ef 533a 2d17 08bd
00000170: fb5e 2bbd e6dc b7bd 3f23 8fbd 52e0 343d
00000180: 539e 12bd 3708 8bbd f9cf 313d 1a2c fbbc
00000190: 9501 d1bc 1373 6a3c 73f6 9339 e785 0ebd
000001a0: 0afd b73b 3cc7 983c daa3 b43d fb61 523d
000001b0: fb53 23bc 4ef6 1abb 0bba b7bd f51a edbc
000001c0: 8584 8fbd d4bf a0bd ab6a f3bd 7d0d 0ebf
000001d0: bcdb 1cbd 89db 003d 8c57 9dbc cb2d 6e3c
000001e0: 2380 27bc 4255 3abd 14e8 3bbd 5959 fa3c
000001f0: 979d fcbd 3f56 30bc 1046 92ba c480 8bbd
00000200: bac9 3d3d c351 523d 4a03 e93c 4905 99bd
00000210: e611 32bc e813 8fbb 40bb 14bd df2e 473d
00000220: bb1b fabc f879 143d 2f9e 68bd fda2 833d
00000230: f69a d53c 2d6d b7bd d655 9e3c e88b 20bd
00000240: fc8d 08bf 6834 0abd 5fcc 24bc 0e46 50bc
00000250: fbad 243c 4274 81bd 283d 4abd c749 1cb8
00000260: 66bc d6bc fd32 473c 337b a1bd fa50 23bd
00000270: a85f 713d 7269 653c 8955 afbc 96d5 69bd
00000280: f699 5fbd a921 323c 7df8 173c 5845 903d
00000290: 39be 9cbb 8237 aa3d b363 9abd db3e e03c
000002a0: 779f 00bd d35c fcbc e950 cb3c 0ff8 833d
000002b0: 821d ccbd 4b6e 383f 478f dfbd 4fd5 67bd
000002c0: 62b8 eabd 954b 6f3d d8e6 35bb cabc 21bc
000002d0: 67ed 4abd 14a8 1bbd 1beb 56bc fda5 8fbc
000002e0: 7f25 a13c c431 52bd 17bf a13b c34f abbd
000002f0: 7574 a0bd 91ad cbbd dd4f 123d cd86 93bd
00000300: 59f2 c5bc 85e0 12ba 4796 7a3d 2713 62bd
00000310: 6ed1 93bd b7ba 503c 6a05 5ebc dac2 1d3d
00000320: 87b5 7bbd b99c a8bd 38cb 0c3f 7e7b a33c
00000330: d911 97bd 93b4 95bd a56b 313d fc77 d43b
00000340: 6374 c33d cd0d 123b 1198 3dbd 75ce 863d
00000350: e0bf 7cbd d96c aebc 8a9a 67bd cf66 40bd
00000360: 49a0 123d 5eb5 07bd 1741 6bbd 0909 253d
00000370: 7317 c2bc 16ce 78bd 4aa7 7f3c f2bd 01bb
00000380: f032 743b 743b c7bc 84c2 a33c fd3a 96bd
00000390: e834 3b3d 84a2 4abe bdcb 12bd a6b9 a33e
000003a0: d08d 22bc 7964 abbd a177 e0bd 40fe 46bd
000003b0: a5e7 bbbc 7d0a 523b 32fb 40bd 7ea1 043e
000003c0: 75b7 2ebd 1043 c43c bd94 cb3c 560f c43c
000003d0: ef7c d1bd 31c7 d43c 7abf 5bbb bbc7 f8bd
000003e0: 1632 403b 7576 c63b cab6 d0bc ebfb 97bc
000003f0: 3d9a 423d 1a36 4a3d 5e3d 5bbd adca aabd
-0.0013917211 -0.027697027 0.07317379 -0.007625973 0.033341195 0.070556 0.060187683 0.0024370844
-0.01744596 0.085338116 0.059879117 -0.0130025325 0.03407093 -0.011420588 -0.03708099 0.050008044
0.032794416 -0.015462147 0.02559604 -0.030767169 0.08034014 -0.04381272 -0.018944664 -0.010249709
-0.033233114 -0.009890686 0.062601 -0.12627405 -0.67296565 0.055146504 -0.0015555816 0.090376
0.081493594 -0.054760087 -0.032664597 0.07440362 -0.006614903 -0.06341597 -0.06840553 -0.052060172
0.02461925 -0.05708882 0.116774224 -0.005014964 0.053285584 -0.02255241 -0.029007498 0.07095182
0.060826678 -0.005705975 -0.03758224 0.014372827 0.0062182522 -0.010542159 -0.028699508 -0.010103103
-0.18271512 0.6568899 -0.025820171 0.022535834 -0.15593006 0.034039773 -0.01951532 -0.06581136
0.049761046 -0.02928391 -0.09130436 -0.022627464 -0.04250082 0.028049326 -0.027383005 0.05680842
0.022853388 -0.046518072 -0.0070335157 0.007866796 0.03278963 -0.010156416 -0.02708576 -0.0032010032
-0.00043010598 -0.005273339 -0.0068475064 -0.01306563 0.115281194 0.19326684 0.0631568 0.03503782
0.024288462 -0.08549189 0.0008084637 -0.033225227 -0.041838627 -0.0897768 -0.069891445 0.04415924
-0.03579552 -0.06788676 0.04341123 -0.030660678 -0.02551345 0.014309662 0.00028221644 -0.034795668
0.0056148814 0.01864969 0.08820315 0.051362973 -0.009968753 -0.0023645344 -0.08971032 -0.028943518
-0.07007698 -0.07849088 -0.1188558 -0.5548933 -0.038295493 0.031459365 -0.019206785 0.014537285
-0.010223421 -0.045491464 -0.045875624 0.030560182 -0.123347454 -0.01076275 -0.0011159796 -0.068116695
0.04633496 0.051347505 0.028443951 -0.07471711 -0.010868525 -0.0043663867 -0.036311388 0.048628684
-0.030530801 0.03624913 -0.05679148 0.06427572 0.026074868 -0.089563705 0.01932804 -0.039195925
-0.5334165 -0.033741385 -0.0100584915 -0.012712015 0.010051246 -0.063210025 -0.04937473 -3.726201e-05
-0.026212882 0.012158153 -0.078848265 -0.039872147 0.058929116 0.014002191 -0.021403091 -0.057088457
-0.054590188 0.010872283 0.009275553 0.07044476 -0.0047834185 0.083113685 -0.07538547 0.027373722
-0.031402078 -0.03080598 0.024818854 0.06443798 -0.09966566 0.72043294 -0.10916 -0.05659991
-0.114609495 0.05842169 -0.0027756002 -0.009871671 -0.04954281 -0.03800209 -0.013117577 -0.017535204
0.0196712 -0.05131699 0.0049361098 -0.08364823 -0.078347124 -0.099452145 0.035720695 -0.072034456
-0.024163412 -0.0005602914 0.061178472 -0.055194046 -0.0721768 0.012739829 -0.0135510955 0.038515903
-0.061452415 -0.082330175 0.5499759 0.019956347 -0.07376451 -0.073098324 0.04331555 0.00648403
0.095436834 0.0022286058 -0.0462876 0.06582347 -0.061706424 -0.021292137 -0.056543864 -0.046973046
0.03579739 -0.03313195 -0.05743512 0.04029182 -0.023692822 -0.060743414 0.01560385 -0.0019797054
0.0037261806 -0.024320342 0.019990213 -0.0733547 0.045704752 -0.19788557 -0.03583883 0.31977576
-0.009921506 -0.08368773 -0.109603174 -0.048582315 -0.022937605 0.0032049709 -0.04711456 0.1295223
-0.042655427 0.02395776 0.024851197 0.023933094 -0.10228907 0.025973888 -0.0033530877 -0.121474706
0.0029326729 0.0060566016 -0.025477786 -0.018552741 0.047510374 0.049368 -0.05352532 -0.083394386

fc1.bias f4 [256]
00000000: bcfd 163c 4a4a 1d3e f8ba c5bd 5b6f d33d
00000010: a231 b83d c0f1 4b3e 5fe7 fb3c b8f0 0b3e
00000020: 2843 ebbd 93bb a63d e5dc 813c 79dc 3abe
00000030: e908 5fbd 4ce0 323e c171 e43c f655 c43e
00000040: acb3 29be 4aee 2d3e ff11 e9bd 42a6 16bd
00000050: 65a4 aabd 12cf a2bd f3be 403e e5c2 b93d
00000060: d275 f93d cdbe c93d 8c0d b3bd 0d0b 1cbd
00000070: e318 383c b1e8 563d cb3b 17bd 8e3c 5abd
00000080: 02d8 d23c dfd3 2d3e 35ec 19bd e837 f93d
00000090: aafd 0a3e c9be 943d 9df6 e93d 3aa5 c1bd
000000a0: 928e 20bd 8ce6 a53d c749 653e 20cf c23c
000000b0: d618 a6bd 8ebf cfbd 04aa c6bd ad63 593d
000000c0: 6e7f 29bd 9433 0bbc 1c7b e8bb ef46 d1bc
000000d0: 89cc 8d3d 9d58 5e3d 3ddd 563d 9cba 223e
000000e0: 8304 02be 113d 1c3e 9767 c1bd 4ebb 883e
000000f0: d8ae aabc 09cc 13be d72e eb3d 1f3f 333e
00000100: 6f16 d2bd fc42 433d e452 8e3d f264 27bd
00000110: 962b 133c 53c6 67bd 89d6 7d3e 693a b13d
00000120: ebcc 493e 6c89 85bd b9b7 593b a1bb f23d
00000130: 8257 a43d 0fb0 f7bc 85e5 44be bea7 5f3d
00000140: 8af3 793e c733 703d 4b05 3d3d 7ffa c83d
00000150: 9653 c23d ec05 0c3e dd7a 283e 6a1b 503c
00000160: 3336 91bd 2bfe aabc 04b1 9fbd 3eea 803d
00000170: bbf4 033e f80d f3bd aa60 113e 0527 8d3d
00000180: b74d 193d 352c 24be 2f88 7c3d 32ee 373d
00000190: e760 c13d 3325 4f3e 65ab 343e 0bb3 363d
000001a0: 2a94 1a3e c950 913c 4870 8d3d 6f69 013e
000001b0: 8104 303e 3e05 e73d da78 3ebc bd5a 8e3e
000001c0: 3292 a73c b18b 353e 3f34 f53d dd01 643e
000001d0: 58ea c6bd 08d8 683e 21bd 83bc 5909 6bbe
000001e0: c309 80bd 1eaa 6dbd 59ce 09bd e076 77bd
000001f0: 8b5c fb3d 3d3e 45bd 02c1 463d 6ec7 9d3e
00000200: 1530 653c 86e5 1b3e 60b2 97bd 52d9 7abd
00000210: ddc4 c13d ecb7 013e 6ac3 a6bb 2e10 dd3d
00000220: 6e74 9b3d a5eb 053e 827d 1ebe 749e 933e
00000230: 9147 1b3e 7572 863e a454 e93b df71 05be
00000240: 94a0 82bd 4ce1 473d 0674 24be f938 4b3e
00000250: e897 233e e225 b83e 75af c03c e1da f03d
00000260: da7a 773e 1efb d63d 6019 7a3a a899 dd3d
00000270: ed3f 063e 4c82 893d 9a31 9cbd 29a6 803d
00000280: 33f9 743e 8376 c9bd 2c51 423e e9cd fa3d
00000290: bb53 fa3d bb83 2c3c 5b03 4e3e d2e5 9b3c
000002a0: ace2 433e ce5e d2bd 27ac 283d 360f c13d
000002b0: 573a 84bd a402 363e d7e9 c2bc b416 913e
000002c0: 8238 15be 5e42 333e e35c 9e3e 58ee 0c3e
000002d0: 2851 893e 4eb3 203d fda7 5f3d 0277 8cbd
000002e0: 5bb8 b93d 9f30 1c3d 8b17 563e 9cd8 8a3d
000002f0: 6237 923c 0e4c 783e 3e0d 513e c92d 7abc
00000300: e1c7 a63d fd31 3e3e 6567 fa3c 1d76 4ebd
00000310: 0787 c6bd f93f c73d 8c37 a23d d5f1 92bd
00000320: 7e86 cb3d f7e5 173d b7cb 353e f946 a23e
00000330: 474f 64be c489 6c3e 8f2a 90bd a059 483e
00000340: 706e 9ebd 6f85 2abe 138f cf3d 57c0 7a3c
00000350: 724c eebd 88ba 3d3e 2305 2d3e 6167 143d
00000360: 2340 f2bb 7aea 0dbe a4f8 04be 98f1 0abd
00000370: e25a d43c 87a7 08bd adf0 443e 7f04 f53d
00000380: 80c7 9d3d 5e92 283e 692e 2bbe 1b4e 8d3d
00000390: e117 293e 6460 c8bc 75a5 0fbd e853 5d3e
000003a0: 841e 3bbd 9519 203e 1a33 3d3e 5670 813e
000003b0: d27d 803e 0ca4 eebc 9240 0d3e 19a0 32be
000003c0: 3530 21bd 6874 c03e 5052 4f3e 2ded ce3d
000003d0: 6b91 9e3c 19f1 413e a80a 3a3e 0037 e7bd
000003e0: 4049 d7bd e708 aa3a caf4 e13d 0d00 663e
000003f0: a9b8 203e a26e 013e 3e36 ca3d cfba f63d
0.009215768 0.1536037 -0.09654802 0.10323974 0.08993842 0.19916439 0.030749975 0.13666046
-0.114874184 0.08141246 0.015852401 -0.18248166 -0.054451857 0.17468375 0.027886273 0.38346833
-0.16572446 0.16985431 -0.113803856 -0.03677965 -0.08332137 -0.07949652 0.18822841 0.09070376
0.121806756 0.098508455 -0.08742818 -0.038096476 0.011236402 0.052468006 -0.036922257 -0.053280406
0.025737766 0.16975354 -0.03757878 0.121688664 0.13573328 0.07262952 0.11423991 -0.094553426
-0.039198466 0.08100614 0.22391425 0.023780406 -0.08110206 -0.10143958 -0.09700397 0.053073574
-0.041381292 -0.008496184 -0.007094754 -0.02554652 0.069237776 0.054283727 0.052457083 0.15891498
-0.12697034 0.1525767 -0.09443586 0.26705402 -0.020835325 -0.14433302 0.11483543 0.17504548
-0.10258185 0.047671303 0.06949404 -0.040867753 0.00898256 -0.05658562 0.2478887 0.08653719
0.19707076 -0.06520352 0.003322108 0.118521936 0.08024503 -0.030235318 -0.1922818 0.05460333
0.24409309 0.05864313 0.046147626 0.09813403 0.09488599 0.13674134 0.16453119 0.0127018485
-0.07090416 -0.02087315 -0.07797435 0.06294678 0.12886326 -0.11867899 0.1419703 0.06892208
0.03742763 -0.16032489 0.061653312 0.044904895 0.09442311 0.20229034 0.17643507 0.044604342
0.15095583 0.017738717 0.069061816 0.12637876 0.17189218 0.11280297 -0.011625493 0.27803603
0.020455454 0.1772907 0.11972856 0.22266336 -0.09712666 0.2273866 -0.016081395 -0.22952785
-0.06251862 -0.058023565 -0.033644054 -0.060416102 0.122735105 -0.04815506 0.04852391 0.30816215
0.013988514 0.15224275 -0.07407069 -0.06124241 0.09461377 0.12667817 -0.005089213 0.10794102
0.075905666 0.13078173 -0.15477565 0.28831828 0.15164019 0.262592 0.0071206857 -0.1303172
-0.06378284 0.048798844 -0.16059884 0.19845952 0.15975916 0.35966402 0.023521164 0.11760498
0.24167958 0.104971156 0.00095405243 0.10820323 0.13110323 0.06714305 -0.07626648 0.062816925
0.23923187 -0.098370574 0.18976277 0.122463055 0.122230016 0.010529454 0.20118468 0.019030485
0.19129437 -0.10271989 0.041179802 0.094267294 -0.0645644 0.17774445 -0.023793144 0.28337634
-0.14572337 0.17505786 0.30930242 0.13762796 0.2681973 0.0392335 0.054603565 -0.068586364
0.09068366 0.038132306 0.20907418 0.06779596 0.017848674 0.24247763 0.20415208 -0.015269705
0.081435926 0.18573757 0.03056688 -0.05040561 -0.09693723 0.09728999 0.07920751 -0.07175032
0.09937762 0.037084546 0.17753492 0.31694773 -0.22295867 0.23099428 -0.070393674 0.19565439
-0.07735908 -0.16652463 0.10134711 0.015304646 -0.116356745 0.18528187 0.16896491 0.036231402
-0.0073928996 -0.13858977 -0.12985474 -0.033921808 0.025922243 -0.03336289 0.19232436 0.11963748
0.07704067 0.16462085 -0.16716923 0.06899663 0.16513015 -0.024460025 -0.0350699 0.21614039
-0.0456834 0.15634759 0.18476525 0.25281018 0.25095993 -0.029130958 0.13794163 -0.17443885
-0.039352614 0.3758881 0.20246243 0.101038314 0.01935645 0.18939628 0.18168128 -0.11289787
-0.10512018 0.0012972624 0.11033018 0.22460957 0.15695442 0.1263986 0.09873627 0.1204735

fc2.weight f4 [128, 256]
00000000: e428 06be 59ea 0c3d 6d4e 09be 6ba3 c3bd
00000010: c645 fabd f28c ce3d 7dc0 2a3d e52f e73c
00000020: 8cca acbd b837 fabd 2f6c 74bd 2f5e f6bd
00000030: 409e 01be 2103 e03d 32a2 19be cfd5 a23d
00000040: 1674 8cbd 0bb4 fbbb a866 edbd aa4c 1abe
00000050: 9a66 d7bd df43 873d a043 f7bd f9f2 f8bd
00000060: b704 523d 0a7e 18be b9dd b9bd 3d0a 00be
00000070: ea29 633d 6da9 eabc d244 06be b2d8 1bbe
00000080: 52f3 cabd 8039 cb3d 7707 1a3d 2e35 18be
00000090: 88ef dd3d 64a5 03be eed9 b7bd b282 cbbd
000000a0: 16cf f2bd 531a d7bd ec9e 02be 0494 de3c
000000b0: 4ada d4bd 9250 3bbe c218 b6bd 2ecc 04bc
000000c0: 2852 8ebb 64c7 b5bd 80ab 723d 3419 71bd
000000d0: 87db eabd 3df6 adbd 62a4 0dbe 38e7 0dbe
000000e0: 3092 aebd fc85 4e3d 3e58 67be 40b0 00bc
000000f0: 708c 84bc 5bb4 973c b611 9abc 6bb2 283c
00000100: a98e e0bd d24e 403c 5a55 fa3b fb1b dcbd
00000110: 3314 bf3d 010f 10be d290 ed3d 2e1e 2bbe
00000120: 0eea e939 bbdc 18be a305 9dbd 7b12 533d
00000130: 9e38 003e ec16 863d 1066 1f3e 5bfc 563d
00000140: 2112 f3ba 781b 2e3c 8b6f edbd c1bc 853d
00000150: c768 753d 3646 80bd 266c 7ebd a418 d9bd
00000160: 7cdd 01be 3965 9c3a 4737 83bc 4033 19be
00000170: 7ef6 a5bd 8d35 cbbd d539 c4bd 823d a6bd
00000180: 1893 99bc 37b2 bbba 03cd 02be d9d6 7d3d
00000190: e722 82bd 1e2b 27be 0bd2 53bd 7595 14be
000001a0: 43af 9dbd b0fd a9bd f809 c7bd f97e ddbd
000001b0: 3e9a f6bd 83a0 d7bd 3c2b a0bd dfd2 c53d
000001c0: 3f71 563d 7fe4 d1bb 36c4 fbbd 7e59 ae3b
000001d0: 1a21 0abe e56c dabd b4f5 35be 7875 b4bd
000001e0: edec c9bd be61 7a3c 14c0 8fbb 8b1f 33be
000001f0: 1d77 0ebe deaa b6bd f490 8c3b a2dd f63d
00000200: aca1 d7bd f866 783d f5c1 823c 7d4b f2bd
00000210: 92f4 083d 2eb1 ebbd bcf4 d1bd b0c6 dabd
00000220: 2cc0 0bbe 9977 05bc d37e 463b e743 13bd
00000230: ef7a 013e 189e 383c 9a9f 9ebd d221 1f3d
00000240: 4511 97bd 8164 113e 0412 f03b c341 f03d
00000250: 910c 0fbe 7a05 213e 3423 443d ae7c 293d
00000260: 63a3 b83d f84f f9bd 9d4d 293d 0173 07be
00000270: c27f 80bd e2ff 8cbb 56ff 86bc 6376 a23c
00000280: 2724 d6bc c55f 0fbe 3f1a 333c 7942 3e3d
00000290: 71e2 84bc 2e6e 54bd 23a7 08bc 6ec1 06be
000002a0: dd59 e8bc f584 7dbd 34fb f1bd 12e0 12bc
000002b0: 6b10 f8bd 1b99 2c3d 0bb4 203d a88b 6c3d
000002c0: c968 a7bd 35e7 0bbe a470 033e eb23 e8bd
000002d0: 467d 993d 8b1a 0fbe 0173 0fbe 6d5f a1bd
000002e0: 4c6d c9bd 388f 923d 1fda e0bd b5a3 a73d
000002f0: 3e4c 8dbc aee3 043c c279 a4bb f354 bdbd
00000300: b01c 10be adca 8ebd b3c1 433d 8a85 a53c
00000310: 6d84 debd 179f bb3c d0d6 d93c d6f0 17be
00000320: 91d5 f13c 690b 0dbd 141a 53bd 818c 873d
00000330: 5746 31be b242 4fbe 3d45 93bd e8e6 453d
00000340: 0cb9 a8bc 7815 febd ab13 b7bd dafb 3bbc
00000350: b5d8 a7bd 3af5 de3c 58c0 abbd 13ba b13d
00000360: 07b1 25be 5372 e73c 9fb6 c4bd f9ce 1cbe
00000370: 7b12 14bc 10fb e8bd e41e f5bd d356 963d
00000380: 6575 c7bd b7b0 28be 9021 c23d 64c6 adbc
00000390: 13ea 07bc d04b 0dbe 1771 183d 24fa e0bd
000003a0: 0913 29be f599 33be cce5 6fbd 559b 223c
000003b0: e48c 673d 29d3 dcbd 064a babd 66f8 81bd
000003c0: 76ec f9bd 50be ca3d eb94 95bd 56cc 8dbd
000003d0: 9a36 2a3d d2a5 2cbe 0356 013c 5cce 103d
000003e0: 93b2 e4bd 24ce c5bc f90e 1fbe 04da cb3c
000003f0: aeb2 f2bd e5e5 02be b066 593d df2d 2b3d
-0.13101536 0.03440318 -0.13408823 -0.09552654 -0.122203395 0.10085477 0.041687477 0.02822108
-0.0843707 -0.12217659 -0.059673484 -0.12029683 -0.12658024 0.10938097 -0.15003279 0.07950937
-0.06858079 -0.007681375 -0.11591846 -0.15068308 -0.105176166 0.06604742 -0.12073445 -0.12155718
0.051274028 -0.1489183 -0.09075493 -0.12503906 0.055459894 -0.028645242 -0.1311219 -0.15219381
-0.09909691 0.09923077 0.037604775 -0.14864036 0.108367026 -0.1285606 -0.08977114 -0.099370375
-0.11855905 -0.10503068 -0.12755936 0.027170189 -0.10393198 -0.18292454 -0.08891441 -0.008105321
-0.00434329 -0.08875921 0.059245586 -0.058861926 -0.11467653 -0.08494232 -0.13832238 -0.13857734
-0.08523977 0.050420746 -0.22592255 -0.007854521 -0.016180247 0.018518617 -0.018807273 0.010296444
-0.1096471 0.011737542 0.007639569 -0.10747524 0.093300246 -0.14068224 0.11599888 -0.16710731
0.00044615607 -0.14927952 -0.07667091 0.051531296 0.12521598 0.06547341 0.15566278 0.05248676
-0.0018544832 0.010626666 -0.11593541 0.065301426 0.059914377 -0.06263392 -0.062114857 -0.10600403
-0.12682146 0.0011932022 -0.01601757 -0.14960957 -0.08103655 -0.099223234 -0.09581343 -0.081172004
-0.018746898 -0.001432008 -0.12773518 0.061972473 -0.06354313 -0.16325042 -0.051713984 -0.14510138
-0.07699444 -0.0830034 -0.09718698 -0.10815234 -0.12041138 -0.10528662 -0.07820746 0.09659361
0.052354094 -0.0064054127 -0.12293284 0.005320727 -0.1348919 -0.10665301 -0.1776951 -0.08811468
-0.09859643 0.015282093 -0.004386911 -0.17492501 -0.13912626 -0.08919309 0.0042897407 0.12053992
-0.10528883 0.060645074 0.015961627 -0.118308045 0.033436365 -0.11508404 -0.102517575 -0.10682428
-0.13647527 -0.00814619 0.0030287995 -0.03595343 0.12644552 0.011268161 -0.07745285 0.038850613
-0.07376341 0.14198495 0.0073263664 0.11731293 -0.13969637 0.15724745 0.047885135 0.04137867
0.090155385 -0.12173456 0.041333783 -0.13227464 -0.06274368 -0.0043029645 -0.016479176 0.019831842
-0.026140286 -0.14001377 0.0109315505 0.046450112 -0.016221257 -0.051862888 -0.00834063 -0.13159725
-0.028363163 -0.061894376 -0.11815491 -0.008964555 -0.121125065 0.0421382 0.039234202 0.057750374
-0.08174283 -0.13662417 0.12835938 -0.11334976 0.07494597 -0.13974969 -0.14008714 -0.07879529
-0.098353 0.07156223 -0.10979103 0.081855215 -0.01724827 0.008110924 -0.0050193975 -0.092447184
-0.14073443 -0.06972251 0.047792148 0.020205278 -0.10865102 0.022903008 0.026591688 -0.14837965
0.029520782 -0.03443471 -0.051538542 0.06618596 -0.17311989 -0.20240286 -0.071909405 0.048315912
-0.02059605 -0.124064386 -0.08939298 -0.01147362 -0.081956305 0.027216543 -0.08386296 0.08678069
-0.16180812 0.028252756 -0.09605145 -0.15313329 -0.009037609 -0.11376011 -0.119687825 0.07340779
-0.09739188 -0.16473661 0.09479058 -0.021212764 -0.008295554 -0.13798451 0.037217226 -0.109852105
-0.16511168 -0.17539199 -0.05856876 0.009924729 0.05653085 -0.10782463 -0.0909615 -0.06346206
-0.122033045 0.098995805 -0.073037945 -0.069237396 0.04155598 -0.1686013 0.007894042 0.03535305
-0.11166873 -0.024146147 -0.15533055 0.024884231 -0.11850487 -0.1278301 0.053076446 0.041791793

fc2.bias f4 [128]
00000000: 96b4 36bd e763 3d3d 2369 e63c 37e8 ed3c
00000010: 18fe 353d ea3f 6a3c 86d4 e23c cba4 203d
00000020: 6221 163d 9a7a bd3c d2d0 7b3d f36d f03d
00000030: f360 243d 59a8 93bd a42d dd3c 406c 1bbc
00000040: ebfb 4e3d 548c 943c 0d8d 96bd f344 993d
00000050: febc 233d 80f9 093d 1c69 743b 80f0 823d
00000060: e5d3 58bd a016 763c aa2a 12bd cef6 1dbd
00000070: 97de 743d 0748 863c bdc3 943c e4d7 303d
00000080: 3117 f73d 3db2 56bc b0a0 3a3d 365f 453d
00000090: 6a90 7f3c ff2d ffbc a23e 6cbd d7f4 9b3d
000000a0: 8291 5e3d 7b37 5d3b fa52 883d d94a 513d
000000b0: 83bc 193c 4708 be3c e0d2 c13c 6a41 d53d
000000c0: 39b1 c43c f5c1 56bd 8d98 5b3c a775 813d
000000d0: ae57 483d 24e9 6f3d 0387 823d 23d4 5fbd
000000e0: a756 6fbd df9d 9c3c 80cc f33d a697 3c3c
000000f0: edd2 9d3d f183 8b3c cfbc 2b3d ed42 aa3c
00000100: 4ed1 c73c bda0 1f3d 7806 a7bc 67e9 c83d
00000110: 9775 e9bb 6c5f e83c 34dc 40bd 692b dabc
00000120: a624 a63c 2bd2 f1bc 834a 8abd c960 3dbd
00000130: bff4 af3d 9fc3 9dbd 0524 92bd 998f 2137
00000140: 51c4 223d 1376 d0bb 0edf c43d f934 1c3d
00000150: 426a 49bb f8cb 483d 4e4c 933c 21cf 413d
00000160: 2143 fdbc 9750 963d 41b6 193d db37 e3b7
00000170: 2756 6abd c0c8 583c 5a3f f9bc 33a4 b5bd
00000180: 334d 953d 1bfa 643b c381 a8ba 0f40 643b
00000190: 10e3 953c c76f 293c af1b bc3d 6dab 9d3c
000001a0: 9dbf 413d ab3d 993d 9a4f fa3c fd33 bfbc
000001b0: 793a 4c3d 5a12 35bd 3536 79bc 13a1 a53c
000001c0: 7741 843c b90c c73c a7c7 11bd 3d7c 473c
000001d0: 3003 293d 421f 3f3d d8c8 9ebd 22ce f9bb
000001e0: a9f7 823c 7b6e dd3c 33bf 833d c147 243d
000001f0: 6dc8 c33c 922f d7bc 0df0 c13c e0fe 283d
-0.044605814 0.046237852 0.028126305 0.029041393 0.044431776 0.014297465 0.02768923 0.03921966
0.03665293 0.02312975 0.061478443 0.11739721 0.04013152 -0.07209844 0.026999302 -0.009486258
0.050533216 0.01813332 -0.07351122 0.07483854 0.03997516 0.033685207 0.0037294095 0.06393528
-0.052936453 0.015020043 -0.03568522 -0.03856545 0.05978259 0.016391767 0.018159742 0.04317464
0.1206497 -0.013104019 0.0455634 0.048186503 0.015598396 -0.031149862 -0.05767692 0.07615059
0.054337986 0.0033754993 0.066564515 0.05109677 0.009383324 0.023197306 0.023660123 0.10412867
0.024010288 -0.052431066 0.01340307 0.063212685 0.048911743 0.05857195 0.06373408 -0.05464567
-0.058432247 0.019118248 0.1190424 0.011510765 0.077062465 0.017030688 0.04192811 0.020783866
0.024391796 0.03897165 -0.020388827 0.09810143 -0.0071246135 0.028365813 -0.047085002 -0.026632028
0.020281147 -0.029519161 -0.06752493 -0.04623488 0.085916035 -0.077033274 -0.071357764 9.629782e-06
0.039738003 -0.006361732 0.09612857 0.038136456 -0.00307335 0.049022645 0.01798072 0.047316674
-0.030915799 0.0733959 0.037527326 -2.7086518e-05 -0.057211068 0.013231456 -0.030425716 -0.08869209
0.07290115 0.0034939114 -0.0012856055 0.003482822 0.018296748 0.010341591 0.09184968 0.019246781
0.047301877 0.07482465 0.030555535 -0.02334022 0.04986045 -0.044206955 -0.015210678 0.020218408
0.016144497 0.024298059 -0.035590794 0.012175617 0.041262805 0.04666067 -0.07753152 -0.00762345
0.015987234 0.02703022 0.06432953 0.040107492 0.023899281 -0.0262678 0.023674035 0.041258693

fc3.weight f4 [4, 128]
00000000: 846d 3c3d a28f 43bd 9ac6 cebd 8c3b 40bd
00000010: 1fd2 b6bd 0004 d9bc 619f 2d3d 4849 62bd
00000020: bcf6 82bd 1212 3abd 7c52 90bd 7b1e 3cbe
00000030: 63fe d9bc 72a9 3c3c 6c8f ddbc eb44 18bd
00000040: 27dc 63bd 791a 473d e468 4c3d f42b a5bd
00000050: 64f4 bd3b 5564 47bd fb71 4abd 7da9 b6bc
00000060: 8124 29bd b8e9 a2bd d876 313d 4a08 6a3d
00000070: dc00 4abd 9b1e 9dbd 3aeb 3c3d cbdb b1bc
00000080: 08ca 06be d5ca efbc f1c3 8abd 3df6 7cbd
00000090: cd16 30bd 1a9f c7bd 15a4 52bd d1ca 5fbd
000000a0: 752a 83be 6493 1abd d0b4 5fbd fef3 8fbd
000000b0: 56de 7bbd 88c9 513d 1a43 f33c 8bbf 8abd
000000c0: d14a 83bd 0aae d03a cf3c 10bd 6ae6 07be
000000d0: 246d 40bd f89b 85bd 6e53 86bd c1ca 483d
000000e0: a0b1 c8bc c26b 83bd 25d8 38be cc8d d3bd
000000f0: 7b0b c7bc c7e9 55bd f1d2 133d f473 2ebd
00000100: cc82 6bbd 859b 503d d79b d4bb 8659 64bd
00000110: 4258 c0bd 2d06 80bd aa7a 67bd 5364 69bd
00000120: 8739 5b3d ccdf afbd 7c22 253d 6263 383d
00000130: 75b7 00be 1d46 8abd 7030 a0bb 15fd 0ebd
00000140: b875 91bd dcfd 45bd 0944 5dbd a3eb 58bd
00000150: c24a 6a3d abfb 20bd 8d30 7dbd 700e 9abd
00000160: 6074 aebd 12ea a9bd af52 00bd 825e 46bd
00000170: 1dbe 613d 7b65 07be 087d 44bd 2c5c edbc
00000180: 1b7c 15bd 1fd5 92bd 955a 36bd 833f 92bd
00000190: da25 63be 9f81 a6ba 0a3b 05be 6d0d afbd
000001a0: 0d1f 3fbd edbc d0bd d860 5c3d ad90 c7bd
000001b0: 3d3b 61bd 6fad 71bd 4d02 35bd 6c9d 01be
000001c0: cc74 8bbd 8d0a d7bd 9d23 5abd 5d98 303c
000001d0: d8ce 63bd 2000 80bd ec37 453d df9e ddbd
000001e0: 7778 adbd 5f21 89bc 0aad 98bd ecdb 143c
000001f0: fdb9 a43b ba2a 4abd f09e c9bc 267d fdbd
00000200: 048f c6bd 84ad 5d3e 490d d03d c63f 9dbe
00000210: 512e bd3d 9e5c 9c3d 27b1 e4bd a4f1 193e
00000220: f9d9 1cbe dd30 253e a37b d53d d262 9c3b
00000230: 71dd c3be f3f1 d73d 944b db3e aac6 123e
00000240: d623 1dbe dd9b dfbd 4044 bdbd da41 bd3d
00000250: fd6c ed3d bfa8 8fbe be7c a03e cf78 d8bd
00000260: b769 af3e a4ea fa3d 9a76 c7bd 3f37 c4bd
00000270: aef7 abbe b5f8 ed3d 492a dcbd 77fb 2ebe
00000280: 883b 7bbd c256 fb3d 0c1c 3abe 9540 f33d
00000290: f2ae bc3e a74a dc3d b253 9f3e d5c6 81be
000002a0: 5955 06be 280f ddbe f9b9 83be 8820 e03d
000002b0: 07b4 f23e 160f d1bd a441 ecbd ff30 2cbe
000002c0: 3145 b03d b38c ef3d 6ddd c53e b9ba 65bd
000002d0: e151 aabe 4a08 48be 6267 fb3d c1e2 d3bd
000002e0: bc14 073f 614a 0d3e e551 ccbb 3268 843d
000002f0: e3b5 5ebe add1 313e 9148 f3bd 955c 173e
00000300: 0c35 173e a314 cbbd 813c 053e 1c3e 95be
00000310: 2571 0a3e a560 f23d 9f11 963e dfa5 103e
00000320: 8f42 c4bd e81c ca3d cf15 cabd 4056 c6bd
00000330: 8193 94bd ca00 cfbe 37e2 0a3e de2b a03e
00000340: be89 93be ba3a b13e e90b 5cbe c58f ec3d
00000350: 3160 c8bd 03b4 1b3e e3e6 853e 4ec8 213e
00000360: 22e0 2b3e b878 ba3d fca1 e2be 5c81 75be
00000370: 8cb4 bdbd 689d 71bd 5157 8b3e 457e 933e
00000380: 9aa1 27be ea0f 35be 9a4b 293e 4caa d93d
00000390: 82b8 92be 31cd 093e 2dce 613d cdda bc3d
000003a0: d716 9cbe fb31 adbd 6048 c9bd c228 d7bd
000003b0: f5d3 1dbe 28f9 d33e 3aef cf3e 3c6b 85bd
000003c0: bef2 d73d 03d9 bb3d dd0d 783e aaaa 963d
000003d0: f18e 173e f124 14be d0b8 bcbd 3d72 9b3d
000003e0: eb54 c43d a984 e3be b737 c93d b97a 0bbe
000003f0: 26e0 0f3e fd4f ab3e 5f3d ec3d 13bf 87bd
0.04600288 -0.0477444 -0.10096474 -0.04693179 -0.08926796 -0.026491165 0.042388324 -0.055245668
-0.06394717 -0.04542739 -0.07046983 -0.18371002 -0.026610559 0.011515008 -0.027045928 -0.0371751
-0.055629876 0.04860923 0.04990472 -0.08065024 0.005796956 -0.04867967 -0.049425106 -0.022297615
-0.04129458 -0.079547346 0.04332623 0.05713681 -0.049317226 -0.07671853 0.046122767 -0.02171125
-0.13163006 -0.029271523 -0.06775654 -0.06175827 -0.042990495 -0.09747143 -0.051426012 -0.05463678
-0.2561833 -0.03773822 -0.054615796 -0.0702896 -0.061491333 0.051217586 0.029695082 -0.06774815
-0.064107545 0.0015921008 -0.03521424 -0.1327149 -0.046979085 -0.06523889 -0.06558882 0.049021486
-0.02449876 -0.064170375 -0.18051203 -0.1032978 -0.024297467 -0.0522249 0.03608984 -0.04259105
-0.057497784 0.050929565 -0.006488304 -0.05574944 -0.09391834 -0.06251178 -0.056513466 -0.056980442
0.05352166 -0.08587608 0.04031609 0.045016654 -0.12569983 -0.06751654 -0.0048885867 -0.034909327
-0.07102531 -0.048337802 -0.05401996 -0.052959096 0.0572002 -0.03930251 -0.06181388 -0.07522285
-0.085182905 -0.082965985 -0.031328853 -0.048429973 0.055112947 -0.13222305 -0.0479708 -0.028974615
-0.03649531 -0.07169556 -0.04451998 -0.0714102 -0.22182408 -0.0012703425 -0.13010803 -0.08547483
-0.04666047 -0.10192285 0.053803295 -0.097443916 -0.054988135 -0.05900329 -0.044191647 -0.12657708
-0.068093866 -0.10500059 -0.05325662 0.010778514 -0.055617183 -0.06250024 0.048149034 -0.10821318
-0.084702425 -0.016739545 -0.074548796 0.009085637 0.0050270543 -0.049357153 -0.02461192 -0.12377386
-0.09695247 0.21648222 0.10158784 -0.30712718 0.0923735 0.07634853 -0.11166602 0.15033585
-0.15317525 0.16131921 0.104239725 0.0047725225 -0.38254884 0.10544195 0.428311 0.14333597
-0.15345702 -0.109184004 -0.09241533 0.09241076 0.115930535 -0.2805843 0.3134517 -0.105699174
0.34260342 0.122517854 -0.09739418 -0.0958085 -0.33587402 0.11619703 -0.10750253 -0.17088114
-0.06133607 0.12272407 -0.18174762 0.118775524 0.36852223 0.10756426 0.31118542 -0.2534701
-0.13118495 -0.43175626 -0.25727823 0.10943705 0.47402975 -0.102079555 -0.115359575 -0.16815566
0.08606947 0.11696758 0.38645497 -0.056086276 -0.33265594 -0.19534412 0.12275578 -0.10345984
0.52766013 0.13797905 -0.0062353485 0.06465186 -0.21749072 0.17365141 -0.11879075 0.14781411
0.1476633 -0.099160455 0.13011362 -0.29148948 0.13519724 0.1183484 0.2931032 0.14125775
-0.095830075 0.09868795 -0.09867441 -0.0968442 -0.07254697 -0.4043029 0.13562857 0.31283468
-0.28816026 0.34615117 -0.21488918 0.11550859 -0.09783972 0.15205388 0.26152715 0.15799066
0.16784719 0.091050565 -0.4426421 -0.23975128 -0.09262952 -0.058988005 0.27215055 0.28807274
-0.1637024 -0.17681852 0.16532746 0.10628185 -0.28656393 0.1345718 0.055128265 0.092214204
-0.30486175 -0.08456799 -0.098282576 -0.10505821 -0.15412886 0.4140103 0.40612203 -0.06514594
0.10544346 0.09172251 0.24224038 0.0735677 0.14800622 -0.14467217 -0.09214938 0.075901486
0.09586509 -0.4443715 0.0982508 -0.13621034 0.1405035 0.33459464 0.11535143 -0.066282414

fc3.bias f4 [4]
00000000: 35f8 d6bd a21f bfbc e74e b73d 216f c3bc
-0.104965605 -0.023330513 0.08950596 -0.023856701
