checkpoint_actor_final.pth (torch, 166231 bytes, 6 tensors)

fc1.weight f4 [256, 29]
0	0xbd6910d0	-0.0569008
1	0xbda1eaee	-0.079061374
2	0xbb7ada22	-0.003827699
3	0xbc3cfdc8	-0.011535116
4	0x3d363301	0.044482235
5	0xbd301fec	-0.042999193
6	0xbdc3806b	-0.09545978
7	0xbd95e257	-0.073185615
8	0xbd8668f5	-0.06562988
9	0xbe329548	-0.17439759
10	0xbde50b9d	-0.11183856
11	0x3d14531d	0.036212076
12	0x3da4b797	0.080428295
13	0x3d1c6f7a	0.03819225
14	0xbd31c753	-0.04340298
15	0x3d993eb5	0.074826635
16	0xbca680ec	-0.020325147
17	0xbd4b8d6d	-0.04969542
18	0xbc36689a	-0.011133337
19	0x3d4bdaf6	0.049769364
20	0xbd387d92	-0.04504163
21	0x3d508cfd	0.050915707
22	0xbda313a9	-0.07962734
23	0xbddf4ae9	-0.1090296
24	0xbe0fcda0	-0.14043283
25	0x3d8609e1	0.06544853
26	0xbe41423f	-0.18872927
27	0xbd337efe	-0.04382228
28	0x3f373ed6	0.71580255
29	0x3d91448e	0.07093154
30	0x3d2d4092	0.042297907
31	0x3d3ca3bb	0.046054583
32	0x3c221d69	0.009894707
33	0xbc8d598c	-0.017254613
34	0xbe178368	-0.14796221
35	0x3c21c72f	0.009874149
36	0x3d985e5c	0.074398726
37	0x3e329099	0.17437972
38	0x3ea2e95b	0.3181866
39	0x3d377512	0.04478938
40	0xbdca27ee	-0.09870897
41	0x3bbaf783	0.005705775
42	0x3d06a0c0	0.032868147
43	0xbe24daab	-0.1609904
44	0x3c9352ea	0.017983872
45	0xbbfb0e4d	-0.007661617
46	0xbc2e6d27	-0.010646141
47	0x3c4c6910	0.012476221
48	0xbd45f5a9	-0.048329983
49	0x3d593638	0.053030223
50	0xbd2b9660	-0.041891456
51	0xbdc7b570	-0.09751403
52	0x3bea0df5	0.007142777
53	0xbd5e18ee	-0.054222994
54	0x3d990788	0.074721396
55	0x3d379b0f	0.04482561
56	0x3d261bdc	0.040553913
57	0xbf395b19	-0.7240463
58	0xbe3ff421	-0.18745472
59	0x3e818345	0.25295463
60	0xbc5dc3b7	-0.013535432
61	0xbdb26583	-0.08710768
62	0x3d1413b8	0.036151618
63	0xbd44fcf7	-0.04809281
64	0xbcdce5d4	-0.02696506
65	0x3e67f308	0.22651303
66	0xbe263576	-0.16231331
67	0x3d543966	0.051812552
68	0x3ce58260	0.02801627
69	0x3daec8c0	0.08534384
70	0x3b8dcadc	0.0043271612
71	0x3d62a137	0.055329528
72	0xbdde19a0	-0.10844731
73	0x3e19e1b2	0.15027502
74	0x3d97581e	0.07389854
75	0xbc8b6e11	-0.017020257
76	0xbd1ab017	-0.03776559
77	0x3c1cae3b	0.009563024
78	0xbcae8071	-0.02130148
79	0xbd5a0a0b	-0.053232234
80	0x3d0bdfd0	0.03414899
81	0x3c60262b	0.013680975
82	0xbc4b368b	-0.012403141
83	0x3d61078c	0.054938838
84	0xbc6301a1	-0.013855369
85	0x3bcfe720	0.006344691
86	0xbf4e1b7a	-0.80510676
87	0x3d90f15f	0.07077288
88	0x3c6194a4	0.013768349
89	0x3c41579b	0.011800672
90	0x3e0a52a0	0.13508081
91	0xbcef96df	-0.029246746
92	0xbde35552	-0.11100258
93	0xbd19e4d2	-0.037571736
94	0xbd812a94	-0.06306949
95	0x3e14a0a8	0.1451441
96	0xbe2a6a8d	-0.16642208
97	0xbe1591be	-0.14606377
98	0xbd2dc88f	-0.042427596
99	0x3e2b6dbe	0.16741082
100	0xbdf2ea2a	-0.118610695
101	0xbda548ae	-0.08070503
102	0x3de63a2c	0.11241564
103	0x3dc5fcaa	0.096673325
104	0x3cfed30c	0.031106494
105	0x3d18b041	0.037277464
106	0x3db24c09	0.08705909
107	0xbe0fffb3	-0.14062385
108	0x3ce39d1e	0.02778488
109	0xbdc01d72	-0.09380616
110	0xbe4182a9	-0.18897499
111	0xbd83e43a	-0.06440015
112	0x3e43dcd8	0.19127214
113	0x3d75a5b1	0.05997247
114	0xbd4c4a54	-0.049875572
115	0x3ee48b11	0.4463735
116	0xbddb5c0e	-0.107109174
117	0x3d2d8b01	0.042368893
118	0xbc9d0768	-0.01916857
119	0x3d61564c	0.05501394
120	0xbdbf8419	-0.093513675
121	0x3d40a67c	0.047033772
122	0x3ab01a20	0.001343552
123	0x3d56318e	0.052293353
124	0x3d49eaf8	0.04929635
125	0x3e1c4cbb	0.15263645
126	0x3e354cbd	0.17705055
127	0x3d8ff645	0.07029394
128	0xbda4d2b9	-0.08048005
129	0x3b9c9252	0.004778185
130	0xbb8c720e	-0.0042860573
131	0x3e0929b6	0.13394818
132	0xbd3c1ebc	-0.045927748
133	0xbd0bbdeb	-0.034116667
134	0x3c93cd0a	0.018042106
135	0xbbb02a52	-0.0053761387
136	0x3e08a2e1	0.13343383
137	0x3e16ebbd	0.14738365
138	0xbd0b0da0	-0.03394854
139	0x3ddacb6a	0.106833294
140	0x3e75cf84	0.24004942
141	0xbda45dcd	-0.080257036
142	0xbe39ad20	-0.18132448
143	0xbcf8a2d0	-0.030351073
144	0xbe02c0e9	-0.12768902
145	0xbe272c2c	-0.16325444
146	0x3deeca6d	0.116597034
147	0xbccd8aea	-0.025090653
148	0xbbe4d913	-0.006983885
149	0xbd3055ab	-0.04305045
150	0xbd183eb8	-0.03716919
151	0xbaa31124	-0.0012441021
152	0xbc84456b	-0.016146382
153	0xbd814e35	-0.06313745
154	0x3d88d269	0.066807576
155	0xbc803911	-0.015652211
156	0xbd2aa825	-0.04166426
157	0xbe1cbf48	-0.15307343
158	0x3d9d85af	0.07691514
159	0x3a7162a7	0.0009208121
160	0xbe4a7b56	-0.19773611
161	0x3d4c5c0f	0.04989248
162	0x3c501a52	0.012701588
163	0xbd849b9c	-0.06474993
164	0x3b35e1e1	0.0027753043
165	0x3daeea99	0.0854084
166	0x3d113dde	0.03545939
167	0xbb8d74a0	-0.0043168813
168	0x3d3f7132	0.04673881
169	0x3cf83be4	0.030301996
170	0xbce72b78	-0.02821897
171	0xbdb6af9e	-0.08920215
172	0x3e2250a9	0.15851082
173	0x3e526c97	0.20549236
174	0xbd2b2e5b	-0.041792255
175	0xbdad7ae3	-0.084707044
176	0xbc70dbaf	-0.014700814
177	0xbd2cf77d	-0.04222821
178	0xbd28263f	-0.0410521
179	0xbde44abd	-0.11147068
180	0xbdb44f81	-0.08804227
181	0xbd722a1e	-0.059122197
182	0xbe3ac9bc	-0.18241018
183	0x3e2f679d	0.17129369
184	0xbe4f2573	-0.2022913
185	0xbcdd11ef	-0.02698609
186	0x3c4257ad	0.011861724
187	0xbe00c693	-0.1257575
188	0xbdde8b97	-0.108664684
189	0xbdcd24f7	-0.10016816
190	0x3d2e4bc5	0.04255273
191	0x3d926c78	0.07149595
192	0x3b991ee9	0.004672874
193	0x3d0c4451	0.03424484
194	0x3ab3212f	0.0013666506
195	0x3e2772ef	0.16352437
196	0xbdf02b87	-0.11727052
197	0xbdfc78e2	-0.12327744
198	0xbd8a8c79	-0.06765074
199	0x3d4cfd42	0.050046213
200	0xbe07ae7b	-0.13250153
201	0x3c9fd686	0.019511472
202	0x3e9cd3fb	0.30630478
203	0xbd4ddb1e	-0.050257795
204	0xbe3baf2f	-0.18328546
205	0x3e930213	0.2871252
206	0xbcd30c03	-0.025762564
207	0xbd3bc9fa	-0.045846917
208	0x3d772ebe	0.06034731
209	0xbbf5dbcf	-0.00750301
210	0xbd833804	-0.064071685
211	0xbc6d99a3	-0.014501962
212	0xbd7134cd	-0.058888245
213	0xbdad2f72	-0.08456315
214	0xbd68b75b	-0.056815486
215	0x3d191b19	0.037379358
216	0x3d48e00e	0.0490418
217	0xbdfda3fb	-0.123847924
218	0xbdb942ef	-0.0904597
219	0x3c181839	0.009283119
220	0x3d25a475	0.04044004
221	0x3cee4b21	0.029088559
222	0x3dc8633e	0.09784554
223	0xbccb5235	-0.024819473
224	0xbc8a2fb7	-0.016868455
225	0x3de88a87	0.11354547
226	0x3e2317a3	0.15926985
227	0xbe188a77	-0.1489657
228	0xbe6926bf	-0.22768687
229	0x3d088903	0.03333379
230	0x3ce7095a	0.028202701
231	0xbe339584	-0.17537504
232	0xbe5282eb	-0.20557754
233	0x3e6d8ad0	0.23197484
234	0xbe20d625	-0.1570669
235	0x3dbe7e42	0.093014255
236	0x3c86db53	0.016462004
237	0x3e377a50	0.17917752
238	0xbe12debb	-0.14342777
239	0x3c863270	0.016381472
240	0xbdf8efe8	-0.121551335
241	0xbbed52d8	-0.0072425418
242	0x3dc1feb4	0.09472409
243	0xbde99e7b	-0.11407181
244	0xbdc19873	-0.094529055
245	0xbdb4731e	-0.08811019
246	0xbb76b414	-0.0037643956
247	0x3c932a6c	0.017964564
248	0xbd4f4886	-0.050606273
249	0xbc6c8303	-0.0144355325
250	0x3d6def18	0.058089346
251	0xbbfa626d	-0.007641128
252	0x3de0235f	0.109442465
253	0xbddb810d	-0.10717974
254	0x3df96a80	0.121785164
255	0xbe4a30ce	-0.1974518

fc1.bias f4 [256]
0	0xbe2dd660	-0.16976309
1	0x3e22262b	0.15834872
2	0x3df1e117	0.118105106
3	0xbe260971	-0.16214539
4	0x3df73053	0.12069764
5	0xbccd079f	-0.025028048
6	0xbe30c182	-0.17261317
7	0x3d25d1ff	0.04048347
8	0x3b849790	0.004046388
9	0x3e9e5b51	0.30929044
10	0xbe1c874d	-0.15285988
11	0x3eba7b29	0.3642209
12	0xbe404f58	-0.18780267
13	0xbe7604a4	-0.24025208
14	0xbeb21b21	-0.34786323
15	0x3d39f14c	0.045396134
16	0xbe2fa89a	-0.1715416
17	0x3def3ca1	0.11681486
18	0xbdca66a8	-0.098828614
19	0xbec0c31b	-0.37648854
20	0x3d900301	0.07031823
21	0xbe8554ca	-0.2604125
22	0x3da0c0b0	0.07849252
23	0xbd808167	-0.062746815
24	0x3d97d421	0.07413507
25	0xbdf46f85	-0.11935333
26	0xbe201c97	-0.15635906
27	0xbc7f281e	-0.0155735295
28	0x3de8aba8	0.11360866
29	0xbd825eab	-0.06365713
30	0x3d4b3ad2	0.049616642
31	0x3c87a42a	0.016557772
32	0x3d1d375c	0.038382873
33	0xbe14e840	-0.14541721
34	0xbe665542	-0.22493461
35	0x3e527503	0.20552449
36	0xbb2f185e	-0.0026717405
37	0xbdbaf898	-0.09129447
38	0xbde12437	-0.109932356
39	0xbd824d4e	-0.06362401
40	0xbdf6b40c	-0.1204606
41	0x3e74cdda	0.23906651
42	0x3ebc245b	0.36746487
43	0xbd197810	-0.037468016
44	0xbdd1f91c	-0.10252592
45	0x3e59d012	0.21270779
46	0x3e870cd4	0.26376975
47	0xbe313dce	-0.17308733
48	0xbdcd7859	-0.1003272
49	0xbe255a3a	-0.161477
50	0xbe137860	-0.14401388
51	0x3e4db51e	0.20088622
52	0xbdbe65c6	-0.092967555
53	0xbee864c6	-0.45389384
54	0x3e38b523	0.18037848
55	0xbcd673b6	-0.026178222
56	0xbdc6933b	-0.09696051
57	0x3d9cec9f	0.076623194
58	0xbeb8153c	-0.359537
59	0x3d38c937	0.04511377
60	0xbd8a957f	-0.06766795
61	0x3ea436ba	0.32073003
62	0x3da3a2d1	0.07990039
63	0xbe08bce5	-0.13353308
64	0x3e32978b	0.17440622
65	0x3d6a3785	0.057181854
66	0x3e1dbb3b	0.15403454
67	0xbe1d2c6d	-0.15348978
68	0x3d234260	0.039858222
69	0x3e3617d1	0.17782523
70	0xbd9ef4b9	-0.07761521
71	0x3c8551c2	0.016274337
72	0xbebf993d	-0.374216
73	0xbdae5f99	-0.085143276
74	0xbc72c710	-0.014817968
75	0xbee9620c	-0.45582616
76	0xbbee3e04	-0.0072705764
77	0x3e3b4e65	0.18291624
78	0xbe671012	-0.22564724
79	0x3c95ad25	0.018271038
80	0x3df695a7	0.12040263
81	0xbe607465	-0.21919401
82	0x3e2b8eda	0.16753712
83	0xbd13cd57	-0.0360845
84	0x3d23a0d8	0.039948314
85	0xbe5e5466	-0.21711883
86	0x3e666453	0.22499208
87	0x3dd24043	0.10266163
88	0xbdd539d0	-0.104114175
89	0xbe931321	-0.28725532
90	0xbe30a01d	-0.17248578
91	0x3d9c9d8f	0.076472394
92	0xbead1521	-0.33805183
93	0x3e4bbd05	0.19896324
94	0x3e298e35	0.16558154
95	0xbe987871	-0.2977939
96	0xbe41c315	-0.18922074
97	0xbdae4b28	-0.08510429
98	0xb96923cd	-0.00022233948
99	0x3cf67dc3	0.030089265
100	0x3e1d20af	0.15344499
101	0x3ce3f1c3	0.027825242
102	0xbddf4c1a	-0.10903187
103	0xbce5e0bc	-0.028061263
104	0xbe165588	-0.14681065
105	0xbe09e75b	-0.13467161
106	0xbd2d4f95	-0.042312223
107	0x3da66855	0.081253685
108	0xbe268243	-0.16260628
109	0xbda8177a	-0.08207603
110	0xbec80ee3	-0.39073858
111	0x3d91bedc	0.07116482
112	0x3d2a578d	0.0415874
113	0xbebdbc85	-0.3705789
114	0x3bb7b635	0.0056064376
115	0xbbc8eb9a	-0.0061316015
116	0x3e631431	0.22175671
117	0xbd548435	-0.051883895
118	0xbe51bf4f	-0.20483135
119	0xbda41412	-0.080116406
120	0xbe987906	-0.29779834
121	0xbb855487	-0.0040689143
122	0xbd5301bd	-0.05151533
123	0x3db829df	0.08992361
124	0xbe3d7f01	-0.1850548
125	0x3e9c7145	0.30555168
126	0xbe07d9b7	-0.13266645
127	0x3e90e50b	0.28299746
128	0x3ddb2899	0.10701103
129	0x3cb752b0	0.022378296
130	0x3d18f046	0.037338518
131	0x3e8a7eb3	0.2704979
132	0x3c0ea531	0.008706377
133	0xbe045e0a	-0.12926498
134	0xbe20033c	-0.15626234
135	0x3d7b7a31	0.061395828
136	0x3d86ef8d	0.065886594
137	0x3c581baf	0.013190194
138	0x3d9b06c4	0.0756965
139	0xbe093c5e	-0.13401935
140	0xbd2f8d6d	-0.042859484
141	0xbe2a5b4a	-0.16636387
142	0xbd8eac52	-0.06966461
143	0x3dd10c91	0.10207475
144	0xbda7a428	-0.08185607
145	0x3e218c3d	0.15776153
146	0xbe76273c	-0.24038404
147	0xbde39f86	-0.11114411
148	0x3e3ed515	0.18635972
149	0x3d13b715	0.036063273
150	0x3da93272	0.08261575
151	0x3c92bf5f	0.017913518
152	0xbe384cf6	-0.17998108
153	0xbeb4df94	-0.35326827
154	0x3e5f2cd6	0.21794447
155	0x3e9d5cb8	0.307348
156	0xbe7e8aa6	-0.24857578
157	0xbbbc832e	-0.0057529425
158	0x3d08f41a	0.03343592
159	0xbe434880	-0.19070625
160	0xbca114e7	-0.019663287
161	0x3e47c8ab	0.19510143
162	0x3ca6440f	0.020296125
163	0xbd896861	-0.06709362
164	0xbe835c0f	-0.25656173
165	0x3dfd62c1	0.123723514
166	0xbe2a7c01	-0.16648866
167	0x3da3bba1	0.07994772
168	0xbeb4a80a	-0.35284454
169	0x3e9cf8a0	0.30658436
170	0x3de8dbd2	0.113700524
171	0xbe0fde15	-0.14049561
172	0xbea22f53	-0.3167673
173	0xbd34a376	-0.0441012
174	0xbe8b7fc5	-0.27245918
175	0x3e1858e2	0.14877656
176	0x3d89ca3e	0.06728028
177	0xbd74841a	-0.059696294
178	0xbd19fabc	-0.037592635
179	0xbcb7c7ba	-0.022434104
180	0xbdce484f	-0.100723855
181	0x3de014ee	0.10941492
182	0x3dfc693b	0.123247586
183	0xbf01e9c3	-0.5074732
184	0xbe0431ca	-0.12909618
185	0x3e31e472	0.17372301
186	0xbdd2a457	-0.102852516
187	0x3bb9e510	0.0056730583
188	0xbe29bcad	-0.1657588
189	0x3d87cc81	0.06630803
190	0x3e17db87	0.14829837
191	0xbd5288ab	-0.051399868
192	0x3c89a3b9	0.016801702
193	0xbdb1d4f7	-0.08683198
194	0x3e368527	0.17824231
195	0xbdea6e61	-0.11446834
196	0x3e2f7e06	0.17137918
197	0x3e09128e	0.13385984
198	0xbe1bbe4b	-0.1520931
199	0xbe55db7e	-0.20884511
200	0x3d04b996	0.03240355
201	0x3e20e15f	0.15710972
202	0x3e0b12ac	0.13581342
203	0xbd65d79a	-0.056113817
204	0xbc36034c	-0.0111091845
205	0x3e849282	0.25893027
206	0xbbb9263f	-0.0056503112
207	0xbdd13ae2	-0.10216309
208	0xbe70fe0c	-0.23534411
209	0xbd4281a4	-0.047486916
210	0xbe0b9531	-0.13631131
211	0x3d3af042	0.045639284
212	0xbe36d6ac	-0.17855328
213	0x3e5d9775	0.21639808
214	0xbd9bdcb1	-0.07610453
215	0xbe3756f8	-0.1790427
216	0x3cedb2eb	0.029015979
217	0xbe932685	-0.28740326
218	0xbd745aeb	-0.05965702
219	0x3e7256d5	0.23665936
220	0x3c6c5de2	0.01442668
221	0x3d7f8cfa	0.062390305
222	0x3cd43a1c	0.025906615
223	0xbe2f0e46	-0.17095289
224	0x3db93740	0.09043741
225	0x3d1a10f1	0.037613813
226	0x3d794a8b	0.060862105
227	0x3ce71e81	0.028212788
228	0x3e673bb9	0.22581376
229	0xbe1073ce	-0.14106676
230	0xbe517e24	-0.20458275
231	0xbe14c6f7	-0.14529024
232	0xbdc73ee4	-0.09728792
233	0xbe063d59	-0.1310934
234	0x3e70e814	0.23526031
235	0x3e63e889	0.22256674
236	0x3de47536	0.11155169
237	0x3d224483	0.03961612
238	0x3dedc452	0.11609711
239	0x3ddeb146	0.10873656
240	0x3d9c691d	0.07637236
241	0xbdb5c700	-0.08875847
242	0x3cd406e0	0.025882185
243	0xbd95acbe	-0.073083386
244	0xbc662656	-0.014047226
245	0xbe7a6b2e	-0.24454948
246	0xbed494d3	-0.41519794
247	0x3da67272	0.081272975
248	0x3e005067	0.12530671
249	0xbe01a98a	-0.1266233
250	0x3dca550f	0.09879505
251	0x3e244f3f	0.16045855
252	0xbe601314	-0.21882278
253	0x3e3b7ac4	0.1830855
254	0x3db1fbef	0.08690631
255	0xbcef6a3e	-0.029225465

fc2.weight f4 [128, 256]
0	0xbd9c565d	-0.0763366
1	0x3cbd9f8e	0.02314737
2	0x3dc2ef48	0.095182955
3	0x3d9e58c0	0.077317715
4	0x3c081876	0.008306613
5	0xbe390473	-0.18068103
6	0xbe0454fd	-0.12923045
7	0xbd6fb1f7	-0.05851933
8	0x3d105313	0.035235476
9	0x3e8ad29f	0.27113816
10	0xbe310719	-0.17287864
11	0xbe1732e1	-0.14765503
12	0xbd8f69dd	-0.07002614
13	0xbde516d5	-0.111859955
14	0xbd96568a	-0.07340725
15	0xbe029cb3	-0.12755089
16	0x3d25a818	0.04044351
17	0x3cb83e84	0.022490747
18	0x3b458dc1	0.0030144306
19	0xbc331c58	-0.010932051
20	0x3e5261bb	0.20545094
21	0xbe40e7c4	-0.18838412
22	0xbde4b86a	-0.11167987
23	0xbdb6bd48	-0.08922821
24	0xbda74c44	-0.081688434
25	0x3bdcab22	0.006734268
26	0x3e8a37b1	0.26995614
27	0x3db73da3	0.08947303
28	0xbdb64ee5	-0.08901767
29	0xbdcf7c61	-0.10131145
30	0xbc75a336	-0.014992526
31	0xbe054157	-0.13013206
32	0x3da08ad0	0.078389764
33	0xbd94eb75	-0.07271472
34	0xbe1a36c8	-0.1505996
35	0xbb38cc88	-0.0028198082
36	0xbe2de5a9	-0.1698214
37	0xbdabd687	-0.08390527
38	0x3e8e9434	0.27847445
39	0xbd69935a	-0.05702529
40	0xbd93f3d3	-0.0722424
41	0xbe6069f2	-0.21915415
42	0x3e46fdb6	0.1943272
43	0xbe0f58fd	-0.1399879
44	0x3e1a68cf	0.15079044
45	0xbe1783c5	-0.1479636
46	0xbdd09cc4	-0.10186151
47	0xbdaf4615	-0.08558289
48	0x3dc97b99	0.098380275
49	0xbcd29491	-0.025705608
50	0xbc9c37d5	-0.019069592
51	0x3d0c5cb3	0.034268092
52	0xbe5412e9	-0.20710339
53	0x3e8161b9	0.2526987
54	0x3e283ef0	0.16430259
55	0x3db2ad2e	0.08724438
56	0x3e34db66	0.17661819
57	0x3d824606	0.06361012
58	0x3cf64261	0.030060949
59	0xbca107e1	-0.019657077
60	0xbcbfa451	-0.023393782
61	0xbd1ba95d	-0.038003314
62	0xbdcddb39	-0.10051579
63	0xbdbfb473	-0.0936059
64	0x3e88d504	0.26725018
65	0xbe70ed8d	-0.23528118
66	0x3c031109	0.007999667
67	0xbdf1feca	-0.11816175
68	0xbdb65d57	-0.08904522
69	0xbe002bb9	-0.12516679
70	0xbe9655c3	-0.29362306
71	0x3dd4da54	0.10393205
72	0xbdd02599	-0.10163421
73	0x3da9d283	0.08292105
74	0x3dd02e75	0.10165111
75	0x3cde2bb2	0.027120445
76	0x3d97a905	0.07405285
77	0xbe866d8f	-0.26255462
78	0xbd9cf1a8	-0.0766328
79	0x3d518db0	0.051160514
80	0xbd213729	-0.039359245
81	0x3daa69f8	0.08320993
82	0x3cf6ef83	0.030143505
83	0x3dd9bb5f	0.10631441
84	0xbe3fa9cc	-0.18717116
85	0x3e189632	0.14901045
86	0xbcdaaa4e	-0.026692536
87	0x3d315226	0.043291233
88	0x3e2b86dd	0.16750665
89	0x3b0c5d01	0.002141774
90	0xbed83b19	-0.42232588
91	0xbd194ff7	-0.037429776
92	0xbd0603df	-0.032718536
93	0xbeb9e649	-0.36308506
94	0x3e18acd2	0.14909676
95	0xbe15853b	-0.14601605
96	0xbc9034c3	-0.017603284
97	0xbad0549a	-0.0015894354
98	0x3d93db8f	0.07219612
99	0x3d0fb14f	0.035081204
100	0xbdf64c90	-0.12026322
101	0x3d65d310	0.056109488
102	0xbe545161	-0.20734169
103	0xbe55ff1e	-0.208981
104	0x3cf055e6	0.029337835
105	0xbdc39ce1	-0.09551407
106	0x3d70c13e	0.05877804
107	0x3d6ac874	0.057320073
108	0xbdc087ca	-0.094009
109	0x3e2f1a88	0.17099965
110	0xbd2f5409	-0.04280475
111	0x3d304e3d	0.043043364
112	0xbd495151	-0.049149815
113	0xbd8727c6	-0.06599383
114	0x3d2290b2	0.039688773
115	0x3c32cd86	0.010913258
116	0xbde61a14	-0.11235443
117	0x3caf9bc5	0.021436581
118	0xbd644846	-0.055732988
119	0xbb207980	-0.0024486482
120	0xbe87732a	-0.2645505
121	0x3e549f1e	0.20763823
122	0xbdd7f4e9	-0.1054476
123	0x3d27ed03	0.040997516
124	0x3ecc14e5	0.3985969
125	0x3e0b4c88	0.13603413
126	0x3c2b7389	0.010464557
127	0xbec9c041	-0.3940449
128	0xbc4f0bb0	-0.012637064
129	0x3e1c2359	0.15247859
130	0xbdac1bd7	-0.084037475
131	0x3d836bed	0.064170696
132	0x3c9cb7c3	0.019130593
133	0x3e1d1765	0.15340956
134	0xbc8de924	-0.017323084
135	0xbc8f4c30	-0.017492384
136	0xbdf616ff	-0.12016105
137	0xbd363e88	-0.04449323
138	0xbe528365	-0.20557936
139	0x3d9361b7	0.07196372
140	0x3e7427ac	0.23843259
141	0xbc4e5fe8	-0.012596108
142	0xbd476278	-0.04867789
143	0x3d2693f8	0.040668458
144	0x3dfd34d9	0.123635955
145	0x3e079fa2	0.13244489
146	0x3b1b50d4	0.00236993
147	0xbdaa4d16	-0.08315484
148	0xbd354fa5	-0.044265408
149	0xbc8bf8f5	-0.017086485
150	0x3c3faaeb	0.011698465
151	0x3d329f09	0.0436087
152	0xbdd510ff	-0.104036324
153	0x3df2a772	0.11848344
154	0xbd0f5710	-0.03499514
155	0x3dd3067a	0.1030397
156	0xbe7658b7	-0.2405728
157	0xbd4b1c63	-0.04958762
158	0xbd781670	-0.060568273
159	0x3dd6ef01	0.10494805
160	0xbe1c3c18	-0.15257299
161	0x3d72b44d	0.05925398
162	0x3e0a71eb	0.13520019
163	0x3d8c8d5d	0.068629004
164	0x3d25c772	0.04047341
165	0x3d039f37	0.03213426
166	0xbdea2f7d	-0.11434839
167	0xbd9f2d84	-0.07772353
168	0xbe2a86be	-0.16652963
169	0x3d58cce3	0.05292977
170	0xbd16cbb5	-0.036815364
171	0x3e1a0155	0.1503957
172	0xbdd7c235	-0.10535089
173	0xbd97427a	-0.07385726
174	0xbe1ddab3	-0.15415458
175	0x3de65749	0.11247117
176	0x3db43c85	0.08800606
177	0x3e216823	0.15762381
178	0x3caf1ece	0.021376994
179	0x3e8b43ee	0.27200264
180	0x3c827a32	0.015927408
181	0xbe956e93	-0.29185924
182	0x3d4f9e0f	0.050687846
183	0xbdf560b3	-0.119813345
184	0xbc8e3f3a	-0.017364133
185	0x3bb12578	0.005406078
186	0x3ca7a129	0.02046259
187	0xbe05ac99	-0.13054122
188	0x3dd5406d	0.10412679
189	0x3e1acc90	0.15117097
190	0xbe8cc6db	-0.27495465
191	0x3c79f167	0.015255309
192	0x3e356be7	0.17716943
193	0x3ebbfb09	0.36714962
194	0xbeae9727	-0.34099695
195	0x3c72444c	0.014786791
196	0x3b631247	0.0034648345
197	0x3dce6f41	0.10079814
198	0xbd80640e	-0.06269084
199	0xbe4a1ced	-0.19737597
200	0x3e3ca15a	0.18420926
201	0xbde7a588	-0.113108695
202	0xbe244bb2	-0.160445
203	0x3d96a08a	0.07354839
204	0x3d86626f	0.065617435
205	0xbd963af1	-0.07335461
206	0xbdb68146	-0.08911376
207	0x3dffe0f2	0.12494077
208	0xbe48a57c	-0.19594377
209	0x3e074767	0.13210832
210	0xbdee0e76	-0.11623852
211	0xbc18744f	-0.009305074
212	0x3dbb6026	0.09149198
213	0xbe7f9c6d	-0.24962015
214	0x3e071002	0.131897
215	0xbcf9b29c	-0.030480675
216	0xbdcce025	-0.1000369
217	0xbe6e4c89	-0.23271383
218	0xbe899865	-0.2687408
219	0xbc5bc025	-0.01341251
220	0x3ea1319e	0.31483167
221	0xbe7356f1	-0.23763634
222	0x3d27445a	0.04083667
223	0xbe66cd0d	-0.22539158
224	0xbe089ab3	-0.13340263
225	0xbb4e6e0f	-0.0031498706
226	0x3d199ccd	0.037503053
227	0xbe1ce9fb	-0.15323631
228	0xbdb86f26	-0.09005575
229	0x3c35feec	0.011108141
230	0xbe4dc96b	-0.20096366
231	0x3d4516a8	0.04811731
232	0x3cba0b0b	0.022710344
233	0x3e6281ff	0.22119902
234	0x3cd1651b	0.025560906
235	0xbe8a52fe	-0.27016443
236	0x3bb06f27	0.005384344
237	0x3d4f679c	0.05063592
238	0x3da61042	0.0810857
239	0xbe8c348d	-0.27383843
240	0x3d04d02b	0.032425087
241	0xbd3cd234	-0.046098903
242	0x3d9e02e8	0.07715398
243	0x3c25b635	0.010114242
244	0x3cf335cc	0.029688738
245	0x3cdddc7d	0.027082676
246	0x3e2e3b39	0.17014779
247	0x3d2b043e	0.041752093
248	0xbbbad2c6	-0.0057013957
249	0xbe4ecd1e	-0.20195433
250	0xbc94cd39	-0.018164264
251	0xbca44a79	-0.020055043
252	0xbdfb968b	-0.12284573
253	0xbdd3df46	-0.103453204
254	0xbda4aba1	-0.08040548
255	0xbc9f57dc	-0.019451074

fc2.bias f4 [128]
0	0xbcd49f7f	-0.02595496
1	0xbe064a1a	-0.13114205
2	0x3d1accf8	0.03779313
3	0x3d4818a2	0.048851617
4	0xbcfc496b	-0.030796727
5	0xbc3046c3	-0.010759058
6	0xbd9e668b	-0.07734402
7	0xbde3febf	-0.11132573
8	0xbb5476b6	-0.003241939
9	0x3d058e24	0.03260626
10	0xbdb17c1b	-0.08666249
11	0xbdb90cc6	-0.090356395
12	0x3da0d749	0.078535624
13	0x3d5c3b16	0.053767286
14	0xbe171767	-0.14755021
15	0xbda02357	-0.078192405
16	0xbe69e49d	-0.22841115
17	0xbd2f8cd0	-0.0428589
18	0xbdb21317	-0.08695047
19	0xbe203e9b	-0.15648882
20	0x3cf8de53	0.03037945
21	0xbdc958fa	-0.09831424
22	0x3d9c43a2	0.076300874
23	0xbd1618e7	-0.036644842
24	0x3d231780	0.039817333
25	0xbd999092	-0.07498278
26	0x3cb4cd68	0.022070602
27	0xbcc85aad	-0.0244573
28	0xbd99a5ea	-0.07502349
29	0xbdb039bd	-0.08604763
30	0x3ddb7721	0.107160814
31	0xbc0bc119	-0.008529925
32	0xbcf3eb1b	-0.029775193
33	0xbdbe44b6	-0.09290449
34	0xbd52dccf	-0.05148011
35	0xbcd8247c	-0.026384585
36	0xbda487a1	-0.08033682
37	0x3d0fb77c	0.035087094
38	0xbb2feb46	-0.0026843115
39	0xbde85b04	-0.11345485
40	0xbe538a87	-0.20658313
41	0xbc55473d	-0.013017473
42	0xbddfbb05	-0.10924343
43	0xbd4855b7	-0.04890987
44	0x3cb46580	0.022021055
45	0x3d547933	0.051873397
46	0x3d489787	0.048972633
47	0xbda73f19	-0.08166332
48	0x3d47917e	0.048722737
49	0xbdd1023a	-0.10205503
50	0x3d923157	0.07138317
51	0x3c84dade	0.016217645
52	0xbd51e120	-0.051240087
53	0xbe0e25c7	-0.13881598
54	0xb9ef82f7	-0.0004568321
55	0x3d2f4cf9	0.042798016
56	0xbddc5640	-0.107586384
57	0x3e17c367	0.14820634
58	0x3c9d64cf	0.019213108
59	0xbd179372	-0.03700585
60	0x3dd35d37	0.10320514
61	0xbb8224c3	-0.0039716675
62	0xbdee2139	-0.116274305
63	0xbd8d102f	-0.068878524
64	0x3d4512a2	0.048113473
65	0xbc8b48ce	-0.01700249
66	0x3ce6b525	0.028162548
67	0xbd89f0b9	-0.06735367
68	0xbd7c47e3	-0.061591994
69	0x3c4d1e78	0.012519471
70	0xbc5377d4	-0.012906987
71	0x3c76c861	0.0150624225
72	0xbd5a72fe	-0.05333232
73	0x3c531320	0.012882978
74	0xbc4e22af	-0.012581511
75	0x3dfa4898	0.122208774
76	0xbd313e54	-0.04327233
77	0xbd9de23e	-0.07709168
78	0x3d45d639	0.0483
79	0xbdd856b4	-0.10563412
80	0x3da71b95	0.08159558
81	0xbe30a658	-0.17250955
82	0xba85d389	-0.0010210137
83	0xbd827249	-0.063694544
84	0xbdf305ab	-0.118663155
85	0x3ccd0cd1	0.025030525
86	0xbe58c13a	-0.2116746
87	0x3de432c5	0.11142496
88	0x3deadee0	0.11468291
89	0xbc8a85bb	-0.01690947
90	0xbe0791ab	-0.13239162
91	0x3d2ddc7a	0.04244659
92	0x3c844cec	0.01614996
93	0xbddc3b97	-0.10753553
94	0x3c5d5efa	0.013511414
95	0xbcffcd15	-0.03122572
96	0xbd9f9944	-0.07792905
97	0x3bfcb571	0.007712059
98	0xbd470a03	-0.048593532
99	0x3cf50add	0.029912407
100	0x3b27a767	0.0025581957
101	0xbc1d0992	-0.009584801
102	0xbe002888	-0.12515461
103	0x3d4a1f60	0.049346328
104	0x3daba203	0.08380511
105	0xbd9d7505	-0.07688335
106	0xbe154cf7	-0.14580141
107	0xbddd673f	-0.10810708
108	0xbc848307	-0.01617576
109	0xbc607b94	-0.013701338
110	0xbe02e821	-0.12783863
111	0xbd8bbf38	-0.068235815
112	0x396af4a4	0.00022407115
113	0xbdcafc1e	-0.09911369
114	0xbdba7cb2	-0.09105815
115	0xbe22d863	-0.15902857
116	0xbd8f49ea	-0.0699652
117	0xbd0404c8	-0.032231122
118	0x3d6e5eac	0.058195755
119	0xbd98ed15	-0.07467095
120	0xbd2e56bf	-0.042563196
121	0x3c976ea5	0.018485377
122	0xbc31077b	-0.010805006
123	0xbe23f684	-0.16012007
124	0xbdc6edbe	-0.097133145
125	0x3ba8b9a4	0.005149083
126	0x3d59cc4e	0.053173356
127	0xbdc31ff7	-0.09527581

fc3.weight f4 [4, 128]
0	0xbd19e622	-0.037572987
1	0x3da0512b	0.078279816
2	0xbd4a47f1	-0.049385015
3	0xbd91952c	-0.071085304
4	0x3e8c8918	0.27448344
5	0x3ed58d3c	0.41709316
6	0xbee6b7e8	-0.45062184
7	0x3e801547	0.25016233
8	0xbecad841	-0.39618114
9	0x3de33aa9	0.11095173
10	0x3dbf3a6e	0.093373165
11	0x3eedb38e	0.46426052
12	0x3d7e3fba	0.062072493
13	0x3dd6f4d1	0.10495914
14	0xbeb9645c	-0.3620938
15	0xbd90e6e7	-0.07075291
16	0xbf65e2b5	-0.8979905
17	0xbd393336	-0.045214854
18	0xbe0f9c11	-0.14024378
19	0xbebd0fb2	-0.36926037
20	0xbea842c2	-0.32863432
21	0x3f499adb	0.78751916
22	0x3df602a0	0.120122194
23	0x3e13a6d9	0.14419116
24	0xbef41599	-0.47672728
25	0x3b4dd0ea	0.003140504
26	0xbe564df4	-0.20928174
27	0x3e386fe8	0.18011439
28	0x3ebc699c	0.36799324
29	0x3eefa398	0.468045
30	0x3e219606	0.15779886
31	0x3e012253	0.1261075
32	0x3dd52db3	0.10409107
33	0x3e665062	0.22491601
34	0x3e45962d	0.19295569
35	0xbe50f570	-0.20406127
36	0xbd9b6d85	-0.075892486
37	0x3dfcee58	0.12350148
38	0x3e1d4d31	0.15361477
39	0xbe4cea14	-0.20011169
40	0x3c1ec955	0.009691556
41	0x3ee58ef5	0.4483563
42	0xbe22d428	-0.15901244
43	0x3bced566	0.00631206
44	0x3eb9a24e	0.3625664
45	0xbe60e299	-0.2196144
46	0xbe2a6883	-0.1664143
47	0x3e2214c8	0.1582824
48	0x3b79b9b7	0.003810508
49	0xbeb2ffa8	-0.34960675
50	0xbd9ef367	-0.07761269
51	0xbe2c5431	-0.16828991
52	0xbf0f1cd4	-0.55903363
53	0x3efb2896	0.49054402
54	0x3f0552ac	0.5207927
55	0x3ddd2aa0	0.10799146
56	0x3de408fa	0.11134525
57	0xbd3d8b7c	-0.0462756
58	0xbe585c9f	-0.21129082
59	0x3ee252ed	0.44203892
60	0x3e83866b	0.2568849
61	0xbe2b8b3e	-0.16752335
62	0x3e015970	0.12631774
63	0xbd09282f	-0.033485588
64	0x3e101ee0	0.14074278
65	0x3d32cd35	0.043652732
66	0xbe0d343b	-0.13789456
67	0x3e0b0bbf	0.135787
68	0xbe504ab6	-0.20341
69	0xba8047a0	-0.0009786971
70	0xbea7bbe4	-0.32760537
71	0x3bb3512f	0.0054723243
72	0x3f308e7f	0.6896743
73	0x3d38b815	0.04509743
74	0x3c34264b	0.010995458
75	0x3e5416f2	0.20711878
76	0xbec92678	-0.39287162
77	0x3e63997b	0.22226517
78	0xbdabc794	-0.08387676
79	0x3e3e9547	0.18611632
80	0x3dbf7e9c	0.09350321
81	0xbe1c117a	-0.15241042
82	0xbde5a3f5	-0.11212913
83	0x3ebee959	0.37287405
84	0xbf21ef09	-0.63255364
85	0xbdd7a79b	-0.10530015
86	0x3db6dd86	0.08928971
87	0x3e13ae01	0.14421846
88	0x3d95c99d	0.07313845
89	0x3e162336	0.1466187
90	0x3e63394b	0.22189824
91	0x3e56cc3d	0.20976348
92	0x3eecf9b9	0.46284273
93	0x3be0af33	0.006856823
94	0x3f65cbe9	0.8976427
95	0x3ef5a101	0.479744
96	0xbe8bdda7	-0.27317545
97	0xbdf045cf	-0.11732065
98	0xbd365c46	-0.044521593
99	0xbc9eee9b	-0.019400885
100	0xbc435266	-0.011921501
101	0x3d2fbdd6	0.04290565
102	0x3f113545	0.5672191
103	0xbc6f5c45	-0.014609401
104	0x3c124008	0.008926399
105	0xbddb1d02	-0.10698892
106	0xbedb2f5f	-0.4280958
107	0xbe459441	-0.19294836
108	0x3ce8ae50	0.028403431
109	0x3e38da29	0.18051971
110	0x3e2bcc6f	0.16777204
111	0xbe984214	-0.29737914
112	0xbdc3667f	-0.09541034
113	0x3d0da54e	0.034581475
114	0xbd9b607e	-0.07586764
115	0x3f581485	0.8440631
116	0xbc238f82	-0.009982945
117	0x3e863084	0.2620889
118	0x3c8ba5d1	0.01704684
119	0x3de1765e	0.11008905
120	0x3d55fedf	0.052245017
121	0xbedb2de0	-0.42808437
122	0x3f2138d5	0.62977344
123	0x3f11a535	0.5689271
124	0xbeb2485f	-0.3482084
125	0x3d9a4110	0.07531941
126	0xbf4c72b1	-0.79862505
127	0x3e704ecc	0.23467559
128	0x3f4ee238	0.8081393
129	0xbd08282a	-0.03324143
130	0x3e8fb05c	0.2806424
131	0x3e3a3553	0.18184404
132	0x3b7e8d69	0.0038841611
133	0xbe116f89	-0.14202704
134	0xbe26dba3	-0.16294722
135	0x3eb7e1c1	0.35914424
136	0x3e6f9dbd	0.23400016
137	0xbe27756d	-0.16353388
138	0xbec3f781	-0.38274768
139	0x3e73731c	0.2377438
140	0x3e029776	0.1275309
141	0xbeed5608	-0.463547
142	0xbe27300b	-0.1632692
143	0xbd10b35c	-0.0353273
144	0xbe4076c5	-0.18795307
145	0x3e99e694	0.3005873
146	0xbf4b2b3e	-0.7936286
147	0x3f4283e1	0.7598248
148	0xbe41c367	-0.18922196
149	0xbed36372	-0.41286808
150	0xbf0e2736	-0.5552858
151	0x3f6ad0d6	0.9172491
152	0xbd166dbc	-0.036725745
153	0xbf528f5d	-0.82250005
154	0xbebc3744	-0.36760914
155	0xbede6220	-0.43434238
156	0x3e142da0	0.1447053
157	0xbf0454b6	-0.5169176
158	0xbf20e743	-0.6285288
159	0x3ecef9b9	0.40424898
160	0x3e520792	0.205107
161	0x3e6b72ec	0.22993058
162	0xbed071f6	-0.40711945
163	0xbd5eabf2	-0.0543632
164	0xbe3fd100	-0.18732071
165	0xbe10f5e7	-0.14156304
166	0xbeaa8ada	-0.3330906
167	0xbe8b9976	-0.2726552
168	0xbec0f3ea	-0.37686092
169	0x3c93d358	0.018045112
170	0xbd989099	-0.07449455
171	0xbe94dd3c	-0.29075038
172	0x3df96832	0.12178077
173	0xbde8ef4d	-0.11373768
174	0xbe2a1534	-0.16609651
175	0x3e25330c	0.16132754
176	0xbd615d7c	-0.055020794
177	0x3c22f64a	0.009946415
178	0x3cf3940e	0.029733684
179	0xbf0fb548	-0.5613599
180	0xbdfa2afa	-0.122152284
181	0xbd3b929b	-0.04579411
182	0x3e332641	0.17495061
183	0xbe4f7ab0	-0.20261645
184	0xbe6dac5a	-0.23210278
185	0xbce24db6	-0.027624946
186	0xbded31d4	-0.115817696
187	0x3efa01b0	0.48829412
188	0x3ea0adab	0.31382498
189	0xbe51c555	-0.20485432
190	0x3f0f7f96	0.56054056
191	0xbe9737c5	-0.29534736
192	0x3e936a8c	0.28792226
193	0x3e338147	0.17529784
194	0xbe8bf3ee	-0.2733454
195	0x3f0b47b5	0.5440629
196	0x3d23fc4d	0.040035535
197	0xbf229941	-0.63515097
198	0xbc7ef8ff	-0.015562295
199	0xbd6d98a4	-0.058006898
200	0xbe02e925	-0.1278425
201	0x3f7d4194	0.9892819
202	0xbf05e5dc	-0.5230386
203	0xbebf8bca	-0.37411338
204	0xbdea812c	-0.11450419
205	0x3dc2c7fd	0.09510801
206	0x3ccd66ef	0.025073497
207	0xbee57130	-0.44812918
208	0x3effe88b	0.49982104
209	0x3df68173	0.12036409
210	0x3e872040	0.26391792
211	0x3ecb2eaa	0.3968404
212	0x3e8a4b5f	0.2701063
213	0x3d5d364f	0.05400687
214	0xbf5a7846	-0.8533977
215	0xbdf6259d	-0.12018893
216	0x3e594ebc	0.21221441
217	0xbe72c399	-0.23707427
218	0xbecb5f94	-0.39721358
219	0x3e71e31f	0.23621796
220	0x3ee2c795	0.44292894
221	0xbdf298be	-0.118455395
222	0x3e9351e3	0.28773412
223	0xbeda0962	-0.42585284
224	0xbe29235d	-0.16517396
225	0x3cd9412c	0.026520334
226	0xbde083f7	-0.1096267
227	0xbde06e81	-0.10958577
228	0xbf8ce8c5	-1.1008536
229	0xbe0a97af	-0.13534425
230	0xbe880e69	-0.26573494
231	0x3f1e5965	0.61855155
232	0x3eafe41c	0.3435372
233	0xbde3ede5	-0.11129359
234	0x3e04bcc7	0.12962638
235	0xbcf7d034	-0.030250646
236	0x3d3959ce	0.04525166
237	0x3e0fc028	0.14038146
238	0x3db8badc	0.090200156
239	0xbf1a2038	-0.6020541
240	0xbf5384e4	-0.8262465
241	0xbe59c590	-0.2126677
242	0xba1ae2d8	-0.0005908436
243	0xbdbf4633	-0.09339561
244	0x3dde7303	0.108617805
245	0xbebe06af	-0.37114474
246	0x3e2d349d	0.16914602
247	0x3c4a5fae	0.012351913
248	0xbc8283c9	-0.01593198
249	0x3c8c667c	0.017138712
250	0xbc8bbca3	-0.017057722
251	0xbf22cfbd	-0.63598233
252	0x3dad34d4	0.08457342
253	0xbe88f51f	-0.26749513
254	0xbd5ffdfb	-0.054685574
255	0xbe83c741	-0.25737956

fc3.bias f4 [4]
0	0xbc9e64b4	-0.019335128
1	0xbda5eaf5	-0.08101455
2	0xbe352f66	-0.17693862
3	0x3dc61d43	0.0967355
