saved_weights/checkpoint_critic_final.pth (torch, 166743 bytes, 5 tensors)

fcs1.weight f4 [256, 29]
00000000: a824 8abe 17d8 30be 0ff2 c43d ed74 37bd
00000010: ccc8 ebbe 4882 08be 3a96 36be 94bc cebd
00000020: 0b5c 63be 4285 3fbd 1fbe 1bbe 6ec4 44bc
00000030: e527 01bd ccd7 9ebd 7343 fd3d 3b33 093d
00000040: 92bc a3be 1a11 493e c8b6 8abd 654a f23d
00000050: 44a0 29bd b5d2 353d 9587 ef3c 7ee4 003e
00000060: 9fed 70bc dc76 a3bc 6d5f 143d 0df9 d13d
00000070: 01c2 bdbf 9b86 42be 4599 12bf e1e3 20be
00000080: 001a 8fbe c6e8 993d ef3e 8d3e ef41 cbbe
00000090: 1851 8a3d dd1f adbe 9b45 b2be 077c 46be
000000a0: f611 a8be ceab a23c 5076 e8be bb2f 1cbd
000000b0: bcf5 61be fad2 463d b42f c43d 350e 92bd
000000c0: 08a0 9bbc 0d5e 06be d48c 70bb 073c 423e
000000d0: cd54 a6be 9083 a3be 15b1 b43b 2d01 af3e
000000e0: 9e74 de3d 120d 303f e409 8bbe a70e 1dbf
000000f0: 47fb 02bf b2e4 08be ddbc a03e 45b0 8e3d
00000100: 6e03 88bd ca17 503e c675 27bf 5f92 e3be
00000110: 0ed3 10be 519d 1dbe a4a7 85bd 0c51 583e
00000120: 803e b13e 7401 243d 041d d7ba bbbe 7abe
00000130: 5fa6 68bd dedb 2e3e 8972 643c 79aa 553d
00000140: f9c1 ee3d c76f b6bb 72a9 96bb 84ee 043c
00000150: 0e83 143e 2a87 0b3e 4bf1 07be 13a8 4abe
00000160: 116c 1bbf d2b1 393e c4d5 12be dda9 2abd
00000170: 0f06 2a3e 6670 be3c 5241 4fbe 0601 4fbe
00000180: 03a4 d93e 7441 743d 9301 58bd 4c1f cb3b
00000190: 9df1 0d3e 6dbd 8f3e 2dc1 c9bc b55f e2bd
000001a0: 15a3 2a3e 3307 c9bd f256 fe3c e59e a2bd
000001b0: b600 e73c f079 9b3d 7e7e 3dbd 7004 f93d
000001c0: 4bd6 98bd 4a83 bb3a 01fa d9bc 55f4 cd3e
000001d0: 0ec7 8c3e 65eb 033d 4de9 95be 24bd b5be
000001e0: 0bd1 ed3d e1e7 033d 0b1c 86bd 4e43 d23d
000001f0: 0612 cebd fa5c efbe 0e17 61bc b7f0 1cbd
00000200: be1d 44bd 4f84 1c3d 05c7 57bd ab0b b73c
00000210: 9c07 093e e6ca cc3d 7549 f13d 7c34 423d
00000220: 2bb1 963d 8385 b13a f978 033e 8298 203e
00000230: 877c 87be a669 933a 15f6 203e a9b8 f43d
00000240: cc21 283d 1466 dfbd bb83 c8be 77ef 533c
00000250: 17d5 2dbd aef1 8c3e 38c3 3abe 2c12 adbe
00000260: 382b 8b3d 32ea 573d 8179 7c3e 8476 babd
00000270: 8ea4 3bbe 15a6 db3c 258d 8abc cf2a 073e
00000280: 2239 153d 8283 333c ce7e c3bd e970 19be
00000290: 452f d63d 3e9c 85bd db96 ebbc 109c 8339
000002a0: 5255 73bd 9db4 d23a 2049 bd3c 5ef6 5e3d
000002b0: cf2e e5bc c090 b03d 2910 99bc 7d9f 6bbe
000002c0: 82bf b63e 04e8 8cbe 7c22 803d f538 47be
000002d0: 3add cdbc daf7 15bd ed54 b93d 9990 183e
000002e0: 4e2e a23d 337e eebd 1f81 82bd ca9e 4c3d
000002f0: 88d7 66be c251 50be 5bff 453d c95e a93e
00000300: b3cd 48be 5c6c ad3e 9359 14be 61e6 333c
00000310: ce48 773d 6ddd dcbd fea8 a7be 0e5e 29bd
00000320: 6348 bcbd 14ad b63d 626e 853e a5da 84be
00000330: 05fb 17bf d081 583f 8e85 0e3e 9e35 95bd
00000340: 33e9 39be 0969 3abd 0aab 2dbd b005 dbbe
00000350: ee20 6cbe d009 88bd 116c 2ebe eab2 153e
00000360: 5b29 5f3d b639 573e 6237 b5ba 60a5 e73c
00000370: 5e90 433e 6ef8 2bbd 2260 35be e778 3ebd
00000380: e4b1 f93d 6b7e 6fbd b469 69be 3b79 46be
00000390: 75d2 8b3d e358 033e 881e 833c b8e4 9c3f
000003a0: 00d0 b3be 61f1 033e 2ad5 38be 6b2b 08bc
000003b0: 4ebc 07be a3e8 10bf 7920 bdbc ae85 ec3e
000003c0: 348d 53bd a54b e2be db56 95be 40bd 863d
000003d0: 4e1c 133e f08f 893e dc14 dbbd fd06 adbd
000003e0: 5423 903e 1b95 483e 4594 20bd b9a1 8fbe
000003f0: 808d 13bf 4071 d33d eb79 97be 3c32 fb3d
-0.26981091 -0.17269932 0.096164815 -0.044789243 -0.46051633 -0.13330948 -0.17830744 -0.10094562
-0.2220308 -0.046757944 -0.15209244 -0.012009723 -0.031532187 -0.07756004 0.123663805 0.033496123
-0.31979805 0.1963543 -0.06773144 0.11830596 -0.041412607 0.0443904 0.029239455 0.12587163
-0.014705091 -0.019954138 0.036223818 0.10252581 -1.482483 -0.1899666 -0.5726512 -0.15711929
-0.27949524 0.07515101 0.27587077 -0.3969874 0.06753749 -0.33813372 -0.3481873 -0.1938325
-0.32826203 0.019857313 -0.45402765 -0.038131457 -0.22066396 0.048541047 0.09579411 -0.07131616
-0.018997207 -0.13121815 -0.0036705034 0.18968211 -0.32486573 -0.31936312 0.005514274 0.34180585
0.10862087 0.68769944 -0.27155983 -0.6135048 -0.5116467 -0.1336849 0.3139409 0.069672145
-0.06641279 0.20321575 -0.65414083 -0.4444761 -0.14143011 -0.15392043 -0.065261155 0.21124667
0.34617996 0.04004045 -0.0016411846 -0.2448682 -0.05679929 0.1707606 0.013943323 0.05216453
0.11658091 -0.005567524 -0.004597836 0.008113507 0.14503118 0.1362578 -0.1327564 -0.19790678
-0.6071177 0.1813424 -0.14339358 -0.0416659 0.16603874 0.023246955 -0.20239761 -0.20215234
0.42507944 0.059632733 -0.052735876 0.0061987992 0.138617 0.28074208 -0.024628246 -0.11053411
0.16663773 -0.09815826 0.031047318 -0.07940463 0.028198581 0.07591617 -0.04626321 0.121590495
-0.07462748 0.0014306095 -0.026608469 0.40225473 0.27495617 0.03220691 -0.29279557 -0.35495865
0.116121374 0.03220356 -0.065483175 0.102667436 -0.100620314 -0.46750623 -0.013738407 -0.0383155
-0.047879927 0.038212117 -0.052680034 0.02234443 0.13381809 0.09999637 0.11781589 0.047413334
0.07358011 0.0013543818 0.12839116 0.15683177 -0.26462194 0.0011246696 0.15718873 0.11949284
0.041047856 -0.10908142 -0.39163002 0.012935511 -0.042439546 0.27528137 -0.18238533 -0.33802927
0.06795353 0.05271358 0.24655725 -0.09104636 -0.18324491 0.026812593 -0.016913006 0.13199924
0.03643144 0.010956647 -0.095456704 -0.14984478 0.10458235 -0.065239415 -0.028758457 0.00025102543
-0.05940754 0.0016075555 0.023106158 0.054434173 -0.027976422 0.08621359 -0.018684464 -0.23010059
0.35692984 -0.27520764 0.062565774 -0.19455321 -0.025129903 -0.036613323 0.090494014 0.1489891
0.07918988 -0.11645164 -0.06372284 0.04995612 -0.22543156 -0.20343688 0.04833923 0.33080128
-0.19609718 0.33871734 -0.14487295 0.01098022 0.060372166 -0.10784421 -0.32746118 -0.041349463
-0.09193494 0.08919731 0.26060778 -0.25948063 -0.593674 0.8457308 0.13918135 -0.07285617
-0.18155365 -0.045510326 -0.042399444 -0.42777777 -0.23059437 -0.066424966 -0.17033412 0.14619032
0.0544828 0.21018109 -0.001382571 0.0282771 0.1909804 -0.041984968 -0.17712453 -0.04650202
0.12192133 -0.05847017 -0.22794229 -0.19382183 0.06827251 0.12826876 0.01600577 1.22573
-0.3511963 0.12885047 -0.18050066 -0.008311133 -0.13255426 -0.56604975 -0.023086773 0.4619574
-0.051648334 -0.44198337 -0.29167828 0.06579065 0.14366266 0.26867628 -0.10697338 -0.084485985
0.28151953 0.19588129 -0.0392039 -0.28053072 -0.57637787 0.10324335 -0.29585204 0.12265441

fcs1.bias f4 [256]
00000000: 09f0 40c0 0287 72bf 55d0 21c0 8484 4ec0
00000010: 9abd 34c0 7a7f 5ec0 cdd6 19c0 10fd 0ac0
00000020: 80db 0fc0 f615 99bf 95b8 1bc0 03d8 10bf
00000030: 359a 2fc0 a178 68c0 ec69 19c0 5856 21c0
00000040: d7aa 19c0 31d7 18c0 846e 08c0 0c18 0ebf
00000050: 5d8f 2ac0 0514 23c0 b46c bb3f f32a 42c0
00000060: e585 b9bf 56f4 a7bf 661e 18c0 cce6 12c0
00000070: 69ef f2be 8939 6ac0 b9c9 28c0 8820 a4bf
00000080: 33ee 91bf ea1a 1dc0 e5c9 10c0 1c30 f7bf
00000090: 1f07 47c0 1db7 3ec0 8200 30c0 36c0 3ec0
000000a0: 764c 23c0 015c 08c0 8089 0cc0 6c3c 05c0
000000b0: b3d5 11c0 d6c0 a5bf a234 80bf 3607 00c0
000000c0: 9b1d 3cc0 6140 bdbe a3c4 b3bf 8a2d 07c0
000000d0: 8c46 41c0 ffc2 3ec0 340f bcbf 97cf 08c0
000000e0: b586 f2bf 36de 28c0 d235 0bc0 5ed1 09c0
000000f0: 14ae 4bc0 8908 19c0 f1a7 1bc0 9f08 06c0
00000100: 92bc 36c0 710a 4cc0 1284 09c0 0b1f babf
00000110: ae71 fabf efd0 2bc0 9c68 22c0 33cf 15c0
00000120: b5db 03c0 4d81 89bf 15f6 fabf aa21 26c0
00000130: 709d 42c0 a428 b1bf 4da6 3fc0 7ecb 30c0
00000140: c89c 29c0 484c e3bf 92c5 77bf 390e 3ac0
00000150: dac2 debf 8a9c 31bf 3faa adbf 24f0 04c0
00000160: f71e 2dc0 dd34 20c0 a174 4bc0 9452 0ec0
00000170: 7b18 cbbf c021 bf3e 0824 13c0 038e 11c0
00000180: 09ce b4bf 3285 69c0 807a 09bf 6e12 36c0
00000190: 5a34 b1bf a501 26c0 0399 bfbf 68c0 dabf
000001a0: 100c 4bc0 609d 01c0 be55 f8bf 5a69 ef3e
000001b0: b3bd 2bc0 2dc0 92bf 68c0 1ac0 b8be ebbf
000001c0: ca97 3ec0 5bf5 eebf db44 2cc0 50ac 9abf
000001d0: b9ce 0ec0 e990 3dc0 84dd 35c0 d028 40c0
000001e0: 35b6 39c0 1931 4dbf 5b39 d2bf f7ea b0bf
000001f0: 951d b7bf e848 3cc0 82a4 3cc0 6cec e2bf
00000200: 028f 17c0 ac28 f3bf 639b 22c0 1dac e2bf
00000210: 4d4b 39c0 a701 88bf f0f3 3dc0 6338 20bf
00000220: b5a6 12bf 4b38 2ec0 cd85 25c0 57c6 cebf
00000230: 456a 36c0 f786 47c0 a7b4 30c0 cae2 0dc0
00000240: b7cd 33c0 f382 9dbf 6e1d d6bf 6af0 2dc0
00000250: fa7a f2bf 89cc 3fc0 7d90 0ac0 4c65 24c0
00000260: 0d88 16c0 3529 f4bf 328c a3bf a873 1ac0
00000270: 596a 33c0 66bf 20c0 e6ea 0bc0 0c59 38c0
00000280: 0c05 1bc0 7716 19c0 4c89 d4bf 6700 2bc0
00000290: 1ecb ddbd 9cc7 c7bf 2054 33c0 3b6d d0bf
000002a0: 3641 0bc0 d5ba 16c0 380a 30bf b58d fdbf
000002b0: d808 54c0 247f 9dbf ae61 ecbf eb3d 76bf
000002c0: 5efa 27c0 b91b d9bf 7aa7 35c0 ee30 2bbf
000002d0: 4c27 11c0 c194 2ac0 6609 e0be 040e 5fbf
000002e0: a830 1dc0 97a8 edbf 44ce 30c0 a8e7 00c0
000002f0: fe0e 1cc0 4e5a ffbf 39c7 f1bf dce8 e7bf
00000300: 4c49 c2bf b380 28be 115a bfbf 490c 5cbf
00000310: 15cd b6bf 07d4 5fbf 83d1 3cc0 9f62 32c0
00000320: 669c 56bf 44d4 2bc0 ba88 27c0 6059 eabf
00000330: e42c 3cc0 e8fa 37c0 f123 37c0 7933 3cc0
00000340: 0c20 1bc0 ca44 d0bf cce8 25c0 5db0 96bf
00000350: a8bf 4cc0 0476 0ac0 bb13 29c0 060b 2ec0
00000360: a4a5 a3bf a094 2ec0 c1ec 45c0 a620 71bf
00000370: 4847 95bf 4bca 46c0 f3dc 38c0 1f47 cbbf
00000380: e57f 09c0 ca62 f1bf 8d92 13c0 42fd a6bf
00000390: 6242 82bf f304 42c0 362a f5bf 5822 ddbf
000003a0: cfb7 4ebf c87f d4bf e7b8 a4bf 8486 30bf
000003b0: 6e73 87bf 6421 44c0 49ad 19c0 a7d4 2ec0
000003c0: 4673 b8bf 06e1 16c0 8298 29c0 0063 1dbf
000003d0: 9a5b febf 5aac 19c0 5f47 fcbf 1ca1 13c0
000003e0: 78b6 b9bf 1eb7 0dc0 7ba0 92bf ad38 d5bf
000003f0: bb96 3ec0 7559 54be b78f 23c0 42fa cfbf
-3.0146506 -0.94737256 -2.5283406 -3.226838 -2.8240724 -3.4765306 -2.4037354 -2.1716957
-2.2477722 -1.1959827 -2.433141 -0.5657961 -2.743787 -3.6323626 -2.39709 -2.520895
-2.4010522 -2.3881342 -2.1317453 -0.5550544 -2.6650002 -2.548097 1.4642549 -3.0338714
-1.4493986 -1.312144 -2.3768554 -2.2953367 -0.4744828 -3.6597617 -2.6373122 -1.2822428
-1.1400818 -2.4547677 -2.2623227 -1.9311557 -3.1098096 -2.9799263 -2.750031 -2.9804816
-2.5515418 -2.1306155 -2.1958923 -2.0818129 -2.2786682 -1.2949474 -1.0016062 -2.0004401
-2.939307 -0.3696318 -1.4044384 -2.1121545 -3.0199308 -2.9806516 -1.469214 -2.1376703
-1.8947359 -2.6385627 -2.17516 -2.1534038 -3.1825 -2.391146 -2.4321253 -2.0942762
-2.8552594 -3.1881373 -2.148686 -1.4540724 -1.9565942 -2.6846273 -2.5376348 -2.3407714
-2.0602849 -1.0742584 -1.9606348 -2.5958047 -3.0408592 -1.3840528 -2.9945252 -2.7624202
-2.6501942 -1.7757654 -0.96785843 -2.907118 -1.7403214 -0.69379485 -1.356758 -2.077157
-2.705015 -2.5032265 -3.1789935 -2.2237902 -1.5866846 0.37330437 -2.2990742 -2.2742927
-1.4125377 -3.6487546 -0.53702545 -2.8448749 -1.3844101 -2.5938504 -1.496857 -1.7089968
-3.1726112 -2.0252304 -1.9401166 0.46760064 -2.6834533 -1.1464897 -2.4179935 -1.8417578
-2.9780145 -1.8668627 -2.6917026 -1.2083836 -2.2313673 -2.9619696 -2.8416452 -3.002491
-2.901746 -0.8015304 -1.6423753 -1.3821706 -1.4305903 -2.9419498 -2.9475408 -1.77284
-2.3681035 -1.8996787 -2.540734 -1.7708775 -2.895221 -1.0625504 -2.9680138 -0.6258604
-0.57285625 -2.7221859 -2.5862916 -1.6154279 -2.8502362 -3.1176126 -2.7610261 -2.216967
-2.8094308 -1.2305588 -1.6727731 -2.7177987 -1.894378 -2.9968588 -2.1650689 -2.5686827
-2.3520539 -1.9075075 -1.2777159 -2.413309 -2.803366 -2.511682 -2.186212 -2.880435
-2.422183 -2.3919961 -1.66044 -2.6718996 -0.10829757 -1.5607791 -2.8020096 -1.6283334
-2.1758552 -2.3551533 -0.6876559 -1.980887 -3.3130398 -1.2304425 -1.846731 -0.9618823
-2.6246562 -1.6961585 -2.838347 -0.66871536 -2.2680235 -2.6653292 -0.4375717 -0.8713076
-2.4560947 -1.8567075 -2.7625895 -2.0141392 -2.438415 -1.9949434 -1.8888923 -1.8117938
-1.5178618 -0.16455345 -1.4949361 -0.85956246 -1.4281336 -0.87432903 -2.9502876 -2.7872694
-0.83832395 -2.6848307 -2.6177201 -1.8308525 -2.94024 -2.874689 -2.8615687 -2.9406416
-2.423831 -1.6270993 -2.5923338 -1.1772572 -3.1991978 -2.163453 -2.6418293 -2.7194228
-1.2784925 -2.7278214 -3.0925753 -0.9419044 -1.1662378 -3.106097 -2.8884857 -1.588108
-2.148431 -1.8858273 -2.3058197 -1.3046038 -1.0176508 -3.031552 -1.9153507 -1.7276106
-0.8074922 -1.6601496 -1.2868928 -0.68955255 -1.0582101 -3.064538 -2.4012015 -2.7317293
-1.4410179 -2.3574843 -2.6499333 -0.61479187 -1.9871705 -2.4011445 -1.9709281 -2.3067083
-1.450881 -2.2143016 -1.1455225 -1.6657921 -2.9779499 -0.2073725 -2.5556467 -1.6248248

fc2.weight f4 [128, 260]
00000000: 1d0b 1cbe 6bd5 2ebf d658 56be 9787 98be
00000010: 0d4e 8b3e 142b c13d e658 823e 51a3 09bf
00000020: dc32 433e 51ef 19bf 255c 2d3f dc84 b0be
00000030: 06de b9be a8e1 3a3b 5912 51bd 7aa4 cbbd
00000040: 2fc3 463d 1062 363f 21f4 7b3c 9615 9dbe
00000050: 895f 6c3e 5e12 413e 462c e8bd 52ff 1c3e
00000060: df61 d83d 545d 9bbd be93 52be c34f 8bbe
00000070: d34e e6be 6c69 bb3e 0d99 7e3e bcba 8f3e
00000080: b777 2e3d 9f95 3c3e e7e9 0dbf 17ef 56bc
00000090: 5a45 4a3e 1549 d2bd 99f3 6ebe 5a2e 69bd
000000a0: eec6 c23e 092b 72bd cd03 c1be b275 eb3c
000000b0: 05b6 1dbe 4efd ddbe e655 8e3d 7cc1 2bbe
000000c0: 977f 993e 98a4 403e ea9c 0dbf 1574 f93d
000000d0: e676 843e 48fc 22be ce7b 37bf e7ca 153e
000000e0: 3369 1e3d 5e11 a9be eba8 b2bd 21e5 923e
000000f0: 3101 a53b a33a f43e e435 04be a98f 1a3f
00000100: 8fa3 20be e57f 183e 9727 c93d 5e54 373e
00000110: bc67 973d 7c90 e0bd 2d59 e6bc 6705 9a3d
00000120: 113a ad3e 3725 e6be b107 babc 2b55 bfbd
00000130: 3df1 c83e 5854 233e 2926 843e 20c2 c9bd
00000140: c120 1cbe 5f42 d63d c0be cbbe 0462 933b
00000150: d111 0f3f db07 35be 1bce 9cbd 6644 a5be
00000160: 259d 683e 344b e5bd d589 203d 50e5 c5be
00000170: 6352 f4bd 8726 65bd ac33 583e da26 63bd
00000180: 2426 cf3e 9ef6 4ebe 1511 4cbf bb3b 41be
00000190: 70a6 98bf e2e1 c1be ea3e 82be 7fad 6c3e
000001a0: 0c2f ac3d 9927 4cbd 31b9 07be ced0 043e
000001b0: 6216 2a3e 3bac 703e 8304 caba 2294 14bf
000001c0: 6426 06be fbd0 00bf 9fc8 893e 4116 d2bd
000001d0: 4628 01bf b1a9 f33c 843a abbd 2004 133d
000001e0: 03cb 46bc 5000 88be ff6a 493e 0fda 3cbf
000001f0: 8f72 0f3e 2e4c dcbc 5c2a d13d 2304 d8be
00000200: 6ecc 703e ec27 43bf 4a5d 323e fcec b33e
00000210: 06f5 873e 346c f9bc 6b0c 2e3e 1c1b d73d
00000220: cbf8 2fbf 7c9c 1a3e 35a6 afbe 571d a4bd
00000230: f0e4 d8bb 0ab2 283c 0e04 3bbe 45b0 2fbd
00000240: dfd0 433e 0148 73be e7f9 843c d323 f9bd
00000250: abc6 7b3e 8dfb fb3e 6f49 25bf c5b0 813c
00000260: 4fd3 fbbd 61d6 27be 9485 703e 3884 91be
00000270: 85b6 d1be de0e d2bd 61a0 c1be 5572 003e
00000280: 9db1 10bf fdbb 8ebd d793 c6be c152 9b3e
00000290: 9e75 b1be a1a3 663e 6845 87be 0da2 b5bd
000002a0: 587d 83be 2876 f9bd 6193 de3b a1fe cfbd
000002b0: 2423 46bd c87b 9dbd b800 8c3e 2ff5 bbbd
000002c0: 8c48 c8be 7022 a3be 393b c83e 74e6 493d
000002d0: 6c54 f23e fcb8 703e 3985 a83e 1034 24bf
000002e0: 9298 963e efb1 e5bc 7e5f 66bc 8d3b 063e
000002f0: 2949 6c3e 4da0 79be 8d23 e8be 7f63 9d3e
00000300: a5ab 13bf 5f44 573d 2f9a e63c 9e8f 1abe
00000310: 9090 5ebe 3588 0bbe d0b6 f73c 08e8 61be
00000320: 3f9f 893d fc4b 4bbe 7c6f eb3d d34d 54bd
00000330: 80ad fa3e ab09 293e f0be 313e fde5 313e
00000340: 4b42 ac3e e6ff d13d 0584 a5be b2c3 703e
00000350: de2f 0e3e c5d9 1dbe f188 e6bd c681 09be
00000360: 2459 1bbf f80f 31bd 6b3b 28be ffe8 043d
00000370: 77ab 7b3e 5b2b d3ba a259 2fbe 6fbc f9be
00000380: 718f a03e cee4 8dbd 6652 60bf 12d6 5ebe
00000390: ffba 813c 6376 07bd 15c6 5d3d e660 833e
000003a0: c71b 57be f732 d93d 8308 33be 6404 08be
000003b0: ed54 f7bd 7439 f3bd 50d9 e23e ae6c e2bd
000003c0: 0ae2 8cbe 1c8b 1cbe 7974 1f3d a4d8 bdbe
000003d0: f7e5 bc3c e73d f93d 9b99 ab3e 4a82 c93e
000003e0: 4fd5 89be 1cd9 38be 23ea 76bf 62e5 8cbd
000003f0: 8104 0b3d c8ea 84bd 9b15 47be 2117 9c3e
-0.15238614 -0.682944 -0.20932326 -0.29790947 0.27207986 0.094320446 0.2545845 -0.53764826
0.1906237 -0.6013079 0.67718726 -0.34476364 -0.36302203 0.002851585 -0.05104289 -0.09943481
0.048525985 0.7124338 0.015378029 -0.3068053 0.23083319 0.18854663 -0.113365695 0.15331772
0.105655424 -0.0758616 -0.20564172 -0.2720929 -0.44982013 0.36603868 0.24863072 0.28072155
0.042594638 0.18416451 -0.5543503 -0.013118527 0.19753018 -0.102678455 -0.23335113 -0.05692897
0.38042396 -0.059123073 -0.37698212 0.028742645 -0.15401466 -0.4335732 0.069499776 -0.16773027
0.29980156 0.18812788 -0.55317557 0.12180344 0.25871962 -0.1591655 -0.71673286 0.14628182
0.038674545 -0.33021063 -0.08723625 0.28690436 0.0050355424 0.47700986 -0.12911183 0.6037546
-0.15687393 0.14892538 0.09822004 0.17903277 0.07392833 -0.10965058 -0.028118694 0.07520562
0.33833364 -0.44950268 -0.022708746 -0.093424164 0.3924655 0.15950143 0.25810364 -0.098514795
-0.1524687 0.10461878 -0.39793968 0.0044977684 0.5588656 -0.17678778 -0.07656499 -0.32278746
0.22716196 -0.111959845 0.039193947 -0.38651514 -0.119297765 -0.055944946 0.21113461 -0.055456974
0.40458786 -0.20211264 -0.79713565 -0.18870442 -1.1925793 -0.37867647 -0.25438625 0.23113059
0.08407411 -0.04984245 -0.13254239 0.12970278 0.16610101 0.235032 -0.0015412722 -0.5803853
-0.13100582 -0.5031888 0.26910874 -0.10258151 -0.5045208 0.029744001 -0.0836077 0.035892606
-0.012133363 -0.26562738 0.19669722 -0.7377023 0.14008544 -0.026891794 0.102131575 -0.42190656
0.23515484 -0.7623279 0.174184 0.35141742 0.26554126 -0.030447103 0.16996925 0.105032176
-0.68739 0.15098757 -0.34306493 -0.08013409 -0.0066190884 0.010296354 -0.18263265 -0.042892713
0.19122647 -0.23757936 0.016232444 -0.12165036 0.24587505 0.49215356 -0.64565176 0.01583136
-0.12296163 -0.16390373 0.23488456 -0.28421187 -0.40959564 -0.10256742 -0.37817672 0.12543614
-0.56521016 -0.0696945 -0.38784668 0.30336574 -0.34660047 0.22523357 -0.2642014 -0.08868799
-0.25681567 -0.1218074 0.0067924713 -0.101559885 -0.048373356 -0.07689625 0.27344298 -0.091776244
-0.3911785 -0.3186221 0.39107683 0.049292043 0.47330034 0.23508066 0.3291414 -0.6414194
0.29413277 -0.028038947 -0.014060853 0.13108654 0.23074783 -0.24377556 -0.45339623 0.30739972
-0.57683784 0.052555438 0.028149692 -0.15093848 -0.21734834 -0.13626178 0.030238539 -0.22061169
0.06719827 -0.19853204 0.11495873 -0.05183203 0.48960495 0.16507594 0.17357993 0.1737289
0.33644328 0.10253887 -0.32327285 0.23512152 0.13885447 -0.15415104 -0.11256588 -0.13428411
-0.6068289 -0.04322812 -0.16428916 0.032448765 0.24577127 -0.0016110943 -0.17124036 -0.48776576
0.31359437 -0.06928407 -0.8762573 -0.21761349 0.015836237 -0.033071887 0.054143984 0.25659865
-0.2100669 0.10605424 -0.17483716 -0.13282925 -0.12076745 -0.11876193 0.4430642 -0.11055885
-0.27516204 -0.15287441 0.038929436 -0.37079346 0.023058875 0.1217001 0.3351563 0.39357215
-0.26920554 -0.1805157 -0.96451014 -0.06879689 0.033939842 -0.064900935 -0.19441836 0.30486396

fc2.bias f4 [128]
00000000: 6676 89be 1799 5f3e d44c 31be 1582 79bf
00000010: 7105 713f 7dfb 8ebf 271e 3fbf bc8d 013e
00000020: bcb0 dc3b 138d 2abf 3790 d83e cd2e 1cbf
00000030: 4817 033f c589 ab3f 68bd 22bf b1a4 c0be
00000040: a589 bcbd ade7 40bf 8543 63bd 0c76 b73f
00000050: 4466 48bf bdf6 513e f1f3 b9be 58b6 c1be
00000060: 3e24 67be 27c1 10bf dc52 853f f144 57bf
00000070: ecf8 2cbf 6d17 1fbf a93a 75bb 90e8 3abf
00000080: 9023 12bf c580 fbbe f2f1 e8bd bf8e d13e
00000090: 28b7 52bf b253 cfbe 4cbd 1f3e f268 14bf
000000a0: aeba a63e 02d2 9dbe 7e5d 0cbd 3c0d 77bf
000000b0: 1492 a43f eb7b 6c3f 211b adbe a1b8 51bf
000000c0: cf88 4ebe 8439 6abf dda6 9cbf 8eba 0abf
000000d0: b044 eb3b 6173 00bf ce2d 2fbf 1155 9bbf
000000e0: 9113 37bf d2d8 fb3c dd2f 90bf 8c03 35bf
000000f0: ef97 adbf 0b5b 12bf 6b28 3cbe a2f8 2ebf
00000100: 1538 b0be 25ca 51bf cccf 67be a22a 80be
00000110: 1abe 2dbf 02a7 f0be 4e58 d4bd cf9f dcbc
00000120: d118 dfbc 8380 a23d d203 37bf 0b5d a0be
00000130: 8ead 06bf 9e71 02bf 8202 97bf 7599 02bf
00000140: 02c5 4dbf 808d 07be 63b9 f9bf 4785 65be
00000150: cfb1 4c3f 1946 69bf 20fc 0c3e 8a23 fb3e
00000160: 040b 32bf 842f edbe d2af e13e 368e 5bbf
00000170: 23f4 83be fc6c 443f ae6d c1be 79a5 c73e
00000180: 2b21 1bbe 2d40 16bf e7ab 72bf e613 26bf
00000190: 09f3 173f caef b4be 1077 3b3f d1ad 1dbf
000001a0: 1062 f7bf 90af a33f cb20 03bf 8d0e ff3d
000001b0: 3acf 5cbf 86a4 b0be 0476 2fbf 9b12 78bf
000001c0: f788 57be 8405 f9bf 3a51 c03f ebc3 bd3d
000001d0: 6f43 80be 320c 7e3e 79c4 15bf d62b d73e
000001e0: faba 9abe 77ed 823e 4678 93be 8975 13bf
000001f0: d936 e3bf 146a 47be e89e 74be 6f46 283f
-0.26848143 0.21835743 -0.17314464 -0.97464114 0.9414893 -1.1170498 -0.74655384 0.12651724
0.0067349356 -0.6662151 0.42297527 -0.6100891 0.512074 1.3401419 -0.6357026 -0.3762565
-0.09205941 -0.7535351 -0.055484314 1.43329 -0.78281045 0.2050428 -0.36318925 -0.3783443
-0.22572419 -0.5654473 1.0415912 -0.8408957 -0.67567325 -0.6214512 -0.0037418997 -0.7301111
-0.57085514 -0.4912168 -0.113742724 0.4092922 -0.82310724 -0.40493542 0.15599555 -0.57972634
0.325643 -0.30824286 -0.03426885 -0.9650457 1.285708 0.92376584 -0.3380976 -0.81922346
-0.20169376 -0.9149401 -1.2238423 -0.5419091 0.007179819 -0.50176054 -0.6842927 -1.2135335
-0.7151423 0.030743036 -1.1264607 -0.7070854 -1.3561991 -0.5717017 -0.18374793 -0.68348134
-0.34417787 -0.81949073 -0.22637862 -0.25032526 -0.67868197 -0.47002417 -0.10368405 -0.026931671
-0.027233513 0.07934668 -0.71490204 -0.31320986 -0.52608573 -0.50954616 -1.179764 -0.51015407
-0.80378735 -0.13237572 -1.95097 -0.22414123 0.79958814 -0.91122586 0.13768053 0.49050552
-0.6954806 -0.46325314 0.44079453 -0.8576387 -0.257722 0.76728797 -0.3777899 0.38993433
-0.15149371 -0.58691674 -0.9479355 -0.6487411 0.5935522 -0.35339195 0.7322855 -0.6159335
-1.9326801 1.2787952 -0.51221913 0.12453947 -0.862537 -0.3450052 -0.6853945 -0.9690339
-0.21048342 -1.9454808 1.5024788 0.09265884 -0.25051448 0.2480934 -0.5850292 0.42025632
-0.30220777 0.25571796 -0.288027 -0.5760122 -1.7751113 -0.1947406 -0.23888743 0.65732473

fc3.weight f4 [1, 128]
00000000: 88ff 473d dbaf cabc 3eda ac3d fdbe 253c
00000010: 0871 8e3d 129a 2abc 5c01 f1bc 6c41 813d
00000020: 676a 30bd 1b2f 61bd 2e8f 19be a7c5 3bbd
00000030: 2f2e 1e3d 1ff3 a73d b870 003d 165e 873d
00000040: 85b8 8bbc 2048 63bc 48aa 693d 63b6 703d
00000050: 15e1 893c 4e81 b73c 1c8e 863d ed24 f7bc
00000060: ba74 64bc c3a4 d23c 552f 823d f19c c3bc
00000070: 9c60 babc 1599 05bd 9f5c 2639 983e e93c
00000080: dbd5 acbb 0253 fabc ed03 35bd 4058 ea3c
00000090: b287 b33c 7f3a 0fbd 39c0 853d 7733 2abd
000000a0: c974 533d 8019 1c3e 80d9 7f3d d2ea c8bb
000000b0: 42e9 993d 8bde 073d 3fc0 3dbc d77b 63bd
000000c0: 1a0d 45bd eb65 8ebd b3c5 81bc 4660 88bd
000000d0: c3b3 88bc c502 713b 4554 c0bc b859 b1bc
000000e0: 8456 b6bc 2ec7 df3c 19e8 6b3c ebc8 acbc
000000f0: 3447 39bd 9868 c1bc 7bd5 7abd 344b 48bd
00000100: 24f5 163d f510 3e3c 2525 a03d 7449 3c3d
00000110: f11d 06bd 6351 87bc d572 0dbd e8e1 8f3d
00000120: cf12 683d 9ab4 a33d c23b e6bd a441 113c
00000130: 6c89 54bd 5b76 e3bc db38 88bd 20ac 96bc
00000140: a07a 3bbc 96b6 053d 8ff7 cbbe 3f27 abbc
00000150: 0a4f 113d 224b 0abd c104 893d c80c cf3c
00000160: 2539 cdbc bd03 88bd c884 053d e09e 3cbd
00000170: 4e8f 42bd c99f f63c 8520 ebbc a269 173d
00000180: 13d1 463d 6730 e0bd b8fe 36bd 1b0a f339
00000190: f476 993d c8d2 d03b 3197 243d bf3c d1bb
000001a0: 3dd7 a7be 988e ba3d 8f25 e93b 3083 443d
000001b0: f855 6d3b d577 c7bc ac22 81bd a45b b83a
000001c0: 8c76 1a3d cbbe 94be 94fa b33d 1876 d93c
000001d0: d3b3 e5bc 7804 ff3c 3ac6 163d 1e9c 393e
000001e0: 3f3e 0fbd d1c9 2b3e 47f2 443d f194 1ebd
000001f0: f86f 35be 9b33 023d b7ca a9bc 58aa 573d
0.048827678 -0.024742058 0.08440064 0.010116336 0.06955153 -0.01041271 -0.029419594 0.06311306
-0.043070223 -0.054976564 -0.14996025 -0.045842793 0.038618263 0.082006685 0.031357497 0.06609742
-0.01705576 -0.013872176 0.05704716 0.058767688 0.01683096 0.022400524 0.06570074 -0.030168975
-0.013943845 0.02571333 0.06356684 -0.023878546 -0.022751145 -0.032616694 0.00015865498 0.02847223
-0.005274517 -0.03055716 -0.044193197 0.028606534 0.02191529 -0.034967896 0.06530804 -0.041552987
0.051625047 0.15244102 0.062463284 -0.0061315084 0.075151935 0.033171218 -0.01158148 -0.055538025
-0.048108198 -0.06953033 -0.01584134 -0.06658988 -0.01668728 0.0036775332 -0.023477683 -0.021649227
-0.02225805 0.027316656 0.014398598 -0.021091899 -0.04523392 -0.023609444 -0.061238747 -0.048899844
0.036854878 0.011600723 0.07819585 0.045968488 -0.032743398 -0.0165183 -0.03453334 0.0702551
0.056658562 0.079934314 -0.11241867 0.008865748 -0.05188887 -0.027766397 -0.06651469 -0.018392622
-0.01144281 0.03264483 -0.3983731 -0.020892737 0.03547577 -0.03376306 0.0669036 0.02527465
-0.025051663 -0.06641338 0.032597333 -0.046049953 -0.047499947 0.030105488 -0.02870203 0.036965974
0.048539232 -0.10946732 -0.044676512 0.000463561 0.07493392 0.0063727833 0.04018325 -0.0063854153
-0.327814 0.09109229 0.007115073 0.047976673 0.0036214571 -0.024349133 -0.06305441 0.0014065397
0.03771071 -0.29051813 0.08788028 0.02654557 -0.028039848 0.03113006 0.036810137 0.1812596
-0.034971472 0.16776206 0.048082616 -0.03871626 -0.17718494 0.031787496 -0.020726545 0.052652687
